model10.pth (torch, 215663 bytes, 7 tensors)

1.weight f4 [150, 300]
-0.010424071 0.046786085 0.04490278 -0.0123187015 0.019430337 0.0058385674 0.027135083 0.028092647
0.02372205 -0.03312511 -0.024731714 0.01694375 -0.044843033 0.008692476 0.027638372 -0.014844117
-0.002500649 0.012820102 0.022238512 0.043790806 0.056016117 -0.019758113 -0.03982635 -0.02652874
-0.06187734 0.04184747 -0.030544752 0.0037103468 -0.059214465 -0.03271983 0.04422529 -0.020035462
-0.03223092 -0.0060335496 -0.017081123 -0.040962625 0.036949117 -0.026095696 0.010272513 -0.01986034
-0.05539827 0.032115567 -0.0063222977 -0.0637577 0.048432127 -0.0017536756 0.036411893 0.036693454
-0.03374103 -0.0028440205 0.06465242 -0.045879364 0.044494335 -0.043417446 0.04381461 0.0015164987
0.0066637066 0.03923787 -0.055682518 0.04440614 -0.044347405 0.014823176 -0.029409658 0.053652763
-0.005164072 0.022556538 -0.017714465 -0.049418394 0.036095873 -0.026868934 -0.050917838 -0.023596078
0.0019611048 0.055687573 0.012320258 -0.05826489 -0.05570912 -0.03201113 0.010843637 0.011274119
0.052685197 0.03268972 -0.019783726 -0.013135501 0.008601992 -0.02431443 -0.046440933 0.006171761
-0.044659004 0.05378863 -0.018166676 -0.051367786 -0.03882073 -0.006708071 -0.043017052 -0.04283796
0.0036312514 0.041153856 0.042425044 -0.008921706 0.016741501 0.011221995 -0.036628563 0.044266142
0.030175162 0.061060168 -0.04347214 -0.034741417 -0.034793854 0.0060994644 0.039044704 0.0066399546
-0.02024921 0.02598882 -0.046004917 -0.05664133 -0.0015971395 -0.013363748 0.050905593 -0.113291495
0.022863796 0.044379633 -0.0240633 0.04550283 -0.017483052 -0.046578035 -0.045812864 0.033430826
-0.056781277 0.08339671 0.0066633136 0.0131561 -0.01728809 0.04778581 -0.017728994 -0.01789015
-0.036950998 0.028523775 0.04475791 -0.0297483 -0.042884916 0.01138379 0.06328848 0.05904683
0.017102659 0.0787527 0.04538709 -0.0056605353 0.09080222 0.052227996 -0.057173662 -0.005481586
-0.02723774 -0.020595286 -0.0044611166 0.0058330246 0.013620031 -0.049370125 0.0013198622 0.02194264
0.06115772 0.0043288223 0.0853153 0.03538159 0.08649015 0.023029909 -0.029021963 -0.019451885
0.04697516 -0.017580714 -0.020480689 0.043843042 -0.025278414 -0.025309823 0.042270176 0.06576332
0.057013184 0.037251867 0.047370113 0.043465734 -0.023357168 -0.09587823 0.03168327 -0.053418342
-0.033956915 0.0654017 -0.025758985 0.04848326 -0.08833709 -0.04484517 -0.16369602 0.029478304
-0.015813634 0.040653214 0.05521393 -0.016997032 -0.039674584 -0.034016047 0.022652002 0.018322177
-0.007820245 -0.04042954 -0.06859584 0.019208038 -0.030704824 -0.00042277656 0.029977554 -0.048599716
0.009938262 0.007993302 -0.010624159 0.007172275 -0.016837113 0.015107007 0.010989409 -5.5674813e-05
-0.047233604 -0.055532668 -0.035870854 -0.03873089 0.004492805 0.016100287 -0.03510529 -0.007869916
-0.048855174 -0.0039950972 0.025170919 -0.016323335 0.029417941 0.029520307 -0.060691822 -0.059371654
0.035162147 -0.0031759308 -0.04405406 0.020343058 0.04994855 -0.020382253 0.062246464 -0.0068246783
-0.026344858 -0.06583094 0.010168423 0.060586557 0.009119247 0.027953243 -0.04109894 0.0038472458
0.046760287 -0.065375395 -0.06256615 -0.019534362 -0.020784581 0.007156805 0.030578444 0.0075448574
00000000: b9c9 2abc c4a2 3f3d faeb 373d 61d4 49bc
00000010: 5f2c 9f3c 7451 bf3b 654a de3c 8d22 e63c
00000020: bf54 c23c 32ae 07bd 2a9a cabc 9fcd 8a3c
00000030: 54ad 37bd e36a 0e3c de69 e23c bd34 73bc
00000040: eee1 23bb 680b 523c 8a2d b63c fd5d 333d
00000050: 2871 653d c4db a1bc f420 23bd cd52 d9bc
00000060: 1873 7dbd 4168 2b3d fd38 fabc 4a29 733b
00000070: de8a 72bd 3a05 06bd 9425 353d 6921 a4bc
00000080: 9204 04bd 15b5 c5bb b6ed 8bbc 6dc8 27bd
00000090: f557 173d a4c6 d5bc 0b4e 283c 27b2 a2bc
000000a0: 4ce9 62bd 9d8b 033d 472b cfbb 6693 82bd
000000b0: c460 463d 97db e5ba a324 153d e04b 163d
000000c0: 0934 0abd bf62 3abb 7d68 843d 00ec 3bbd
000000d0: b13f 363d 7ed6 31bd f376 333d 41c5 c63a
000000e0: 395b da3b e4b7 203d 5a13 64bd 36e3 353d
000000f0: a0a5 35bd e8dc 723c 86ec f0bc 00c3 5b3d
00000100: 6037 a9bb 7dc8 b83c ed1d 91bc f16a 4abd
00000110: 44d9 133d 3d1c dcbc 398f 50bd 904c c1bc
00000120: e185 003b a718 643d e8da 493c 2aa7 6ebd
00000130: 3f2f 64bd 1a1e 03bd 83a9 313c 15b7 383c
00000140: 6fcc 573d a8e5 053d 7b11 a2bc 4936 57bc
00000150: 5fef 0c3c 0e2f c7bc d938 3ebd 7c3c ca3b
00000160: 5cec 36bd 7751 5c3d 48d2 94bc 0767 52bd
00000170: 7c02 1fbd 61cf dbbb a632 30bd db76 2fbd
00000180: 4afa 6d3b f290 283d e2c5 2d3d 592c 12bc
00000190: 7925 893c 75dc 373c d507 16bd 6a50 353d
000001a0: e731 f73c 3a1a 7a3d d80f 32bd 044d 0ebd
000001b0: 0084 0ebd 04de c73b 57ed 1f3d fa93 d93b
000001c0: ace1 a5bc 81e6 d43c a76f 3cbd bd00 68bd
000001d0: 1c57 d1ba 9ff3 5abc 6282 503d 5f05 e8bd
000001e0: db4c bb3c 6bc7 353d 6620 c5bc 2d61 3a3d
000001f0: 9e38 8fbc 9cc8 3ebd 45a6 3bbd c3ee 083d
00000200: 7c93 68bd e5cb aa3d ed57 da3b af8c 573c
00000210: c19f 8dbc 0ebb 433d 653c 91bc 5d8e 92bc
00000220: ee59 17bd b1aa e93c 1254 373d b5b2 f3bc
00000230: 18a8 2fbd 1383 3a3c 649d 813d 17db 713d
00000240: e01a 8c3c 1849 a13d d0e7 393d 037c b9bb
00000250: 84f6 b93d 06ed 553d ee2e 6abd e09e b3bb
00000260: ae21 dfbc 72b7 a8bc 8f2e 92bb f522 bf3b
00000270: 8d26 5f3c 5438 4abd 3aff ac3a 0dc1 b33c
00000280: 8480 7a3d cbd8 8d3b cab9 ae3d 49ec 103d
00000290: bf21 b13d 38a9 bc3c 78bf edbc 8f59 9fbc
000002a0: 0669 403d 6e05 90bc 1ec7 a7bc c394 333d
000002b0: ad14 cfbc 8c56 cfbc 7e23 2d3d ebae 863d
000002c0: a886 693d 6a95 183d 2a07 423d 2009 323d
000002d0: 8857 bfbc ce5b c4bd 51c6 013d 31cd 5abd
000002e0: 6816 0bbd 54f1 853d 8204 d3bc 6296 463d
000002f0: 14ea b4bd 92af 37bd ee9f 27be 7c7c f13c
00000300: 988b 81bc fc83 263d 0028 623d 5c3d 8bbc
00000310: d181 22bd 6954 0bbd b190 b93c 6418 963c
00000320: 7c20 00bc 7299 25bd fa7b 8cbd 2d5a 9d3c
00000330: af88 fbbc 1ca8 ddb9 7d93 f53c 7f10 47bd
00000340: 18d4 223c 57f6 023c f410 2ebc 6705 eb3b
00000350: fced 89bc 6183 773c ec0c 343c 6084 69b8
00000360: 0678 41bd 3976 63bd 51ed 12bd 48a4 1ebd
00000370: 6138 933b c0e4 833c 91ca 0fbd d2f0 00bc
00000380: 5d1c 48bd 4ee9 82bb 3e33 ce3c 84b8 85bc
00000390: e5fd f03c 92d4 f13c fd97 78bd b12f 73bd
000003a0: 2f06 103d 4723 50bb 0872 34bd 7ca6 a63c
000003b0: da96 4c3d aff8 a6bc 26f6 7e3d 8da1 dfbb
000003c0: 2cd1 d7bc 5fd2 86bd 7599 263c 9c29 783d
000003d0: e568 153c 33fe e43c 5d57 28bd 1322 7c3b
000003e0: b787 3f3d 89e3 85bd af22 80bd 8706 a0bc
000003f0: 6d44 aabc a283 ea3b a57f fa3c da3a f73b

1.bias f4 [150]
-0.01606827 0.006436968 -0.065674104 -0.06680091 0.022299664 -0.0036660836 0.009900253 -0.023943838
0.040928334 -0.0323091 0.002583736 0.027569288 -0.06298327 -0.050608948 0.06988529 0.021524386
0.06379218 0.011882748 -0.0039340835 0.037225503 -0.05063432 0.0138576 -0.011800414 0.0050628628
0.017017154 -0.042604588 -0.032600604 -0.027498785 0.0016551005 -0.024697818 0.04947775 0.048402917
-0.07697523 -0.053859074 0.010053678 -0.025877364 -0.027781408 0.03560713 0.010934618 0.01932533
-0.021745095 0.021359924 0.013767521 0.046699177 -0.051803205 -0.04832249 -0.061531145 0.06091693
-0.034593444 -0.011137524 0.0073896185 -0.01872487 -0.017070485 -0.04889067 -0.015397546 0.05113181
-0.016523944 -0.046863195 -0.022377629 -0.066297755 0.037095804 -0.046387907 -0.054895762 0.02780465
0.03389214 0.062495038 0.009253628 0.060716502 -0.035207976 -0.015884478 0.003398421 -0.05939462
0.008634593 0.016325131 -0.04545004 0.056961652 0.036806617 -0.010265267 0.034830242 0.0024982183
0.05866571 -0.046868343 0.026824081 0.032957803 0.031467 -0.006077413 0.029138772 0.009340403
0.06816983 0.049731907 -0.004853641 0.014875993 -0.031153409 0.0574358 0.05585051 -0.0072975573
0.01302736 -0.06426918 0.020621134 -0.058418084 -0.053723853 -0.027032677 -0.016913442 -0.02911704
0.03935465 -0.055345416 0.030937564 -0.021054976 0.024682311 0.031142065 0.01698619 -0.06051824
0.028284661 -0.006342884 -0.06953679 -0.023395251 0.008188918 0.07815842 -0.026479408 -0.064012825
-0.05940237 -0.075266525 -0.05614519 -0.04698734 -0.06195684 -0.017680844 -0.010305531 -0.0030906613
-0.01080382 -0.054760657 -0.04101627 0.044368237 0.046664406 0.010884228 -0.016342591 0.0059395297
-0.03968712 0.02113762 0.0107313255 0.02385735 0.03872043 -0.028810479 -0.034342986 -0.024433792
-0.03878453 -0.031337313 -0.017840318 0.045272652 0.017843826 0.045246325
00000000: 9ba1 83bc 34ed d23b 2580 86bd eace 88bd
00000010: c9ad b63c ad42 70bb ac34 223c de25 c4bc
00000020: 78a4 273d 8c56 04bd e653 293b fdd8 e13c
00000030: 5ffd 80bd 544b 4fbd 0520 8f3d e953 b03c
00000040: 79a5 823d dcaf 423c 7ce9 80bb c579 183d
00000050: ef65 4fbd fd0a 633c 8656 41bc 5fe6 a53b
00000060: 8f67 8b3c 2682 2ebd 3688 05bd 2245 e1bc
00000070: f5ef d83a 1453 cabc 2ea9 4a3d 2342 463d
00000080: 30a5 9dbd 559b 5cbd 2fb8 243c c4fc d3bc
00000090: d695 e3bc c8d8 113d 1d27 333c 2850 9e3c
000000a0: c522 b2bc 02fb ae3c 2b91 613c a347 3f3d
000000b0: 992f 54bd ceed 45bd 1508 7cbd 0884 793d
000000c0: dbb1 0dbd 297a 36bc 9d24 f23b e664 99bc
000000d0: 67d7 8bbc 9541 48bd fd45 7cbc 976f 513d
000000e0: 395d 87bc 9ff3 3fbd 4a51 b7bc 1ec7 87bd
000000f0: c5f1 173d 3f01 3ebd 61da 60bd 94c6 e33c
00000100: 7cd2 0a3d ccfa 7f3d 879c 173c deb1 783d
00000110: 3d36 10bd 2a20 82bc 0bb8 5e3b c647 73bd
00000120: 1c78 0d3c 48bc 853c d229 3abd 9f50 693d
00000130: 89c2 163d a72f 28bc 28aa 0e3d 26b9 233b
00000140: 754b 703d 05f9 3fbd 2dbe db3c c3fe 063d
00000150: 8ae3 003d 0925 c7bb 6fb4 ee3c 7d08 193c
00000160: a09c 8b3d afb3 4b3d 4b0b 9fbb 70ba 733c
00000170: 6f35 ffbc cd41 6b3d 81c3 643d 5920 efbb
00000180: b570 553c 8f9f 83bd a7ed a83c cd47 6fbd
00000190: 8b0d 5cbd a273 ddbc 0f8e 8abc dc86 eebc
000001a0: 5732 213d e0b1 62bd c670 fd3c 7c7b acbc
000001b0: 8f32 ca3c a51d ff3c 9f26 8b3c f9e1 77bd
000001c0: 3cb5 e73c f8d7 cfbb 4e69 8ebd 66a7 bfbc
000001d0: d02a 063c 8611 a03d 58eb d8bc 2819 83bd
000001e0: e64f 73bd 5625 9abd 80f8 65bd cc75 40bd
000001f0: 75c6 7dbd 6bd7 90bc 88d8 28bc b18c 4abb
00000200: 8102 31bc b64c 60bd ad00 28bd 78bb 353d
00000210: 2d23 3f3d c353 323c e6e0 85bc 63a0 c23b
00000220: f68e 22bd cd28 ad3c 71d2 2f3c 7d70 c33c
00000230: 5099 1e3d f403 ecbc 3bab 0cbd 6029 c8bc
00000240: 87dc 1ebd 8e5b 00bd dc25 92bc d16f 393d
00000250: 372d 923c 3654 393d

3.weight f4 [50, 150]
0.016221955 -0.04522283 -0.05783729 0.07034726 0.03497426 -0.049733922 -0.07381377 0.03592661
-0.020379836 0.4205564 -0.012581678 0.044440053 0.013036846 -0.08839085 0.06412668 -0.00021783514
0.06550993 0.060092818 -0.039745357 0.04176895 -0.069772564 0.04792095 -0.03596433 0.013500315
-0.03603362 0.030608058 0.025977446 0.017497502 -0.008125675 0.064625345 0.06177762 0.08076858
0.018277347 0.030334482 -0.0075046797 0.06975064 0.049806144 -0.007946629 -0.011716939 0.016743047
0.07553197 -0.02004737 0.0045479536 -0.0031552126 0.029429318 0.009845081 -0.082403906 -0.03202039
0.084531575 0.020789154 -0.042221412 -0.0073768445 0.007116325 -0.046882294 0.033320203 0.03776543
0.0444531 -0.054351844 -0.006740777 0.083145775 -0.004923631 0.01878844 0.033291582 0.095507905
0.043876152 0.04504435 -0.049939618 0.082868755 0.083891265 0.0028703308 0.00089117343 0.07401034
0.031868123 -0.07733479 -0.064279005 0.06633205 0.0865909 0.07123458 -0.049227558 0.023169875
0.035221476 0.123424955 -0.045291416 -0.010348545 -0.044506464 0.032698236 0.031289853 0.027635729
-0.022311969 -0.02643568 0.0005389867 0.06695854 -0.06703717 0.053969353 0.05482215 0.040483683
0.092157215 -0.035397705 0.0784485 0.056555 0.024914518 -0.036562007 -0.040140294 0.05559758
-0.031694245 0.08849085 -0.03377314 0.104428366 -0.05512487 0.03172314 0.07818189 0.037340086
-0.044857632 0.009314708 0.06843775 -0.024461674 -0.0015616973 0.042866074 -0.0541117 0.07355979
0.050974876 0.14440423 0.14223914 -0.08796151 0.1326921 -0.030327251 -0.06587378 -0.05981416
0.058725752 0.05737823 -0.045612354 0.0046908893 0.011252099 -0.038288333 0.025675237 0.047413748
0.00958373 -0.038940806 -0.020477425 0.07741813 -0.01947124 -0.0044178045 -0.061864085 -0.04725213
-0.041121118 0.079466075 -0.016954038 -0.11921046 -0.06933383 0.073021054 -0.071921915 0.037271615
-0.033739336 -0.0003253697 -0.0834292 0.007591914 -0.07467096 0.035729982 -0.0074770004 -0.045369916
-0.07751983 -0.056279138 0.06999232 -0.073053725 -0.050051093 -0.06732183 -0.029786142 0.049835216
-0.080832765 0.0015024298 0.056154065 0.051892854 -0.045126416 -0.06613021 0.022723362 0.058145054
-0.058058254 -0.059571132 -0.013301535 0.057221368 0.0022345637 0.06957064 -0.04320931 -0.016460227
-0.039343204 -0.0767783 -0.07535852 0.05090538 -0.006065115 -0.058378853 -0.036880035 0.0074518872
0.07154061 -0.030091885 0.030759703 -0.053735513 0.074482396 0.04791402 -0.035393566 -0.011517724
-0.08020713 -0.06988042 -0.0071448623 -0.07119085 -0.010231999 -0.06906617 0.06281485 -0.012014128
0.0430538 -0.0055077346 -0.08954879 0.0893177 0.007161406 0.0123261325 0.0062270905 -0.065495096
0.018020993 -0.09236176 -0.028255539 -0.057016145 0.06084014 -0.012320365 -0.033032797 0.0018824833
0.064106785 0.009708111 -0.059702758 0.014693185 0.038434133 -0.020288436 -0.024788003 0.04529979
-0.07588799 0.005833826 -0.08699647 0.032313686 0.007594858 -0.042817123 -0.08308209 0.0031793483
0.017124157 -0.03352401 -0.0135182 -0.005414088 0.03363663 0.06542502 -0.014000656 -0.012972205
0.036477253 -0.007819674 0.06225212 0.020550335 -0.002508215 0.02431778 -0.0064038783 -0.02599239
00000000: e8e3 843c 933b 39bd cbe6 6cbd 3912 903d
00000010: 2b41 0f3d ccb5 4bbd ad2b 97bd c827 133d
00000020: 9df3 a6bc 2b53 d73e 6223 4ebc c606 363d
00000030: 7f98 553c 4306 b5bd d954 833d ad6a 64b9
00000040: 122a 863d e323 763d 07cc 22bd eb15 2b3d
00000050: ebe4 8ebd c248 443d 554f 13bd 6d30 5d3c
00000060: fd97 13bd c0bd fa3c a7ce d43c ec56 8f3c
00000070: 8d21 05bc 4b5a 843d 880a 7d3d ff69 a53d
00000080: 60ba 953c 0580 f83c d1e9 f5bb 6cd9 8e3d
00000090: 8701 4c3d 9432 02bc 67f8 3fbc b728 893c
000000a0: 81b0 9a3d 623a a4bc 0007 953b afc7 4ebb
000000b0: c115 f13c 434d 213c 61c3 a8bd d027 03bd
000000c0: e41e ad3d 044e aa3c 5cf0 2cbd 75b9 f1bb
000000d0: 1030 e93b a607 40bd c47a 083d ecaf 1a3d
000000e0: 7414 363d 0aa0 5ebd bce1 dcbb 5548 aa3d
000000f0: 6956 a1bb 37ea 993c c15c 083d a699 c33d
00000100: 7bb7 333d 6d80 383d 7c8d 4cbd 18b7 a93d
00000110: 2fcf ab3d 291c 3c3b a39d 693a bc92 973d
00000120: 2688 023d b461 9ebd b6a4 83bd 19d9 873d
00000130: 9256 b13d 6fe3 913d d6a2 49bd c0ce bd3c
00000140: 6544 103d 39c6 fc3d 7e83 39bd f28c 29bc
00000150: 694c 36bd 96ee 053d ca29 003d 5364 e23c
00000160: 97c7 b6bc a48f d8bc c94a 0d3a 8f21 893d
00000170: c94a 89bd f80e 5d3d 318d 603d 38d2 253d
00000180: ecbc bc3d 2ffd 10bd 9ba9 a03d 37a6 673d
00000190: 8819 cc3c 0bc2 15bd 266a 24bd 4aba 633d
000001a0: d3d1 01bd b13a b53d b455 0abd 8ade d53d
000001b0: 9eca 61bd 20f0 013d d41d a03d ebf1 183d
000001c0: a3bc 37bd b89c 183c 1729 8c3d d963 c8bc
000001d0: deb1 ccba 5694 2f3d 3ba4 5dbd 84a6 963d
000001e0: 08cb 503d b4de 133e 23a7 113e 2a25 b4bd
000001f0: 70e0 073e db70 f8bc d5e8 86bd b1ff 74bd
00000200: 6a8a 703d 6f05 6b3d 05d4 3abd 08b6 993b
00000210: b95a 383c 3ad4 1cbd e054 d23c eb34 423d
00000220: 1405 1d3c 6580 1fbd 46c0 a7bc 668d 9e3d
00000230: 2682 9fbc 3bc3 90bb 3265 7dbd 738b 41bd
00000240: 9e6e 28bd 1cbf a23d 32e3 8abc 9d24 f4bd
00000250: e5fe 8dbd 108c 953d cc4b 93bd 1faa 183d
00000260: 4232 0abd 6296 aab9 eedc aabd 97c5 f83b
00000270: 17ed 98bd 9a59 123d a001 f5bb ced5 39bd
00000280: b7c2 9ebd f484 66bd 2258 8f3d 319d 95bd
00000290: 6002 4dbd 07e0 89bd 1102 f4bc 0320 4c3d
000002a0: a68b a5bd 2eed c43a ce01 663d 9a8d 543d
000002b0: 7ad6 38bd 476f 87bd 5826 ba3c 8229 6e3d
000002c0: 7ece 6dbd dc00 74bd aeee 59bc f460 6a3d
000002d0: c271 123b 0d7b 8e3d 3ffc 30bd 99d7 86bc
000002e0: 5726 21bd f13d 9dbd 9155 9abd 2982 503d
000002f0: dfbd c6bb aa1e 6fbd 850f 17bd f62e f43b
00000300: e283 923d 4283 f6bc c6fb fb3c c519 5cbd
00000310: 3a8a 983d 7e41 443d d8f8 10bd d6b4 3cbc
00000320: a343 a4bd 771d 8fbd 731f eabb 82cc 91bd
00000330: 1da4 27bc 9072 8dbd 12a5 803d e8d6 44bc
00000340: 2e59 303d 3a7a b4bb 5b65 b7bd 33ec b63d
00000350: 3aaa ea3b 8cf3 493c 9f0c cc3b 4b22 86bd
00000360: c3a0 933c 2a28 bdbd 2978 e7bc c389 69bd
00000370: 8333 793d 5bdb 49bc 664d 07bd a8bd f63a
00000380: 6b4a 833d c50e 1f3c e18a 74bd afbb 703c
00000390: 1c6d 1d3d ef33 a6bc 3610 cbbc 468c 393d
000003a0: 2a6b 9bbd ae29 bf3b 352b b2bd 5b5b 043d
000003b0: 49de f83b 0261 2fbd f126 aabd 9d5c 503b
000003c0: f647 8c3c 7950 09bd 717b 5dbc a968 b1bb
000003d0: 90c6 093d 8efd 853d 0263 65bc 5f89 54bc
000003e0: 2c69 153d 171e 00bc 14fc 7e3d 2d59 a83c
000003f0: dd60 24bb 1536 c73c a0d7 d1bb feed d4bc

3.bias f4 [50]
0.08658339 -0.023570508 -0.0076622223 -0.08340862 -0.08305815 -0.05865854 -0.07985173 0.06355803
-0.01353433 -0.07027043 0.04477191 -0.023266869 -0.0057990192 -0.05717983 0.025082486 0.06358404
0.035680525 -0.060002595 -0.013602983 0.04045297 -0.029935814 -0.063545465 -0.0706828 -0.07069606
0.045155425 -0.021474943 0.05444168 0.0535372 -0.050772894 0.112001695 0.067460254 -0.008896342
0.013699055 -0.059695646 0.09469491 -0.043860596 0.031646967 -0.022117905 0.059912633 0.02708951
0.035824593 -0.011582218 0.07300275 -0.024745915 0.045676343 -0.024140278 0.06953095 0.064159356
-0.05567521 -0.06440052
00000000: a252 b13d f016 c1bc 6113 fbbb 23d2 aabd
00000010: 641a aabd f043 70bd 4e89 a3bd b62a 823d
00000020: 18bf 5dbc f1e9 8fbd c062 373d 299a bebc
00000030: b305 bebb 6635 6abd c979 cd3c 5938 823d
00000040: be25 123d 48c5 75bd 0cdf 5ebc 03b2 253d
00000050: f43b f5bc 2024 82bd 25c2 90bd 19c9 90bd
00000060: e5f4 383d 38ec afbc 3dfe 5e3d d349 5b3d
00000070: 3df7 4fbd 2561 e53d 9a28 8a3d f6c1 11bc
00000080: 0072 603c 6c83 74bd 68ef c13d 2ba7 33bd
00000090: 40a0 013d 9c30 b5bc f366 753d d2ea dd3c
000000a0: cfbc 123d 58c3 3dbc 7782 953d f2b7 cabc
000000b0: 1e17 3b3d d5c1 c5bc 3e66 8e3d fb65 833d
000000c0: b00b 64bd 6be4 83bd

5.weight f4 [10, 50]
0.055166755 -0.016014526 0.078531764 -0.042371348 -0.045750458 -0.11132895 -0.05461021 0.10705691
-0.13702837 -0.099244215 0.10525874 -0.007953494 -0.13517128 0.017355038 0.00075226376 -0.0018927396
0.012360408 0.10549595 0.022622207 0.045236714 0.021915931 0.060904965 -0.011606217 -0.06108104
-0.110162266 0.04387315 -0.12795624 -0.05393189 0.04585069 -0.05155231 0.011153925 -0.04091668
0.06468334 -0.07869814 -0.09597273 -0.12321556 0.04401011 -0.019690966 -0.10175131 -0.106750265
-0.042186562 0.10114616 0.026813345 -0.07344841 0.061951175 -0.054435607 -0.056646656 -0.10263715
-0.011001306 -0.008888885 0.049700562 -0.008525252 -0.74700785 0.057763927 -0.06777371 0.16280189
-0.09770928 -0.01794709 -0.07326707 -0.018390592 -0.54245794 0.5329405 0.13846526 0.20534483
0.09691503 0.16254129 0.033956207 -0.018448727 0.16280842 -0.05570049 -0.1380996 0.034271464
0.1348279 0.3629749 -0.0264484 0.10997736 0.17753486 0.44637844 0.021402773 -0.8856545
0.0013564549 0.14062376 0.50704503 0.08586641 -0.114912145 0.17999463 -0.004033792 0.024490032
-0.07664981 -0.12423264 0.03820335 0.16347556 -0.12069648 0.29707733 0.18204436 0.050090134
-0.03871395 0.09399676 -0.31721565 0.07049401 0.11641073 -0.10342344 0.5121869 0.116799526
0.07553906 0.08895743 -0.15785977 0.15560679 0.042399622 -0.42335698 -0.46565259 0.1932329
-0.019913407 0.011494699 -0.12169484 0.03546592 0.022732794 0.19064744 0.10424499 0.059990153
-0.45385292 -0.00998867 0.10515251 -0.013734703 0.10037229 -0.0056559467 0.0410323 -0.11138295
0.14280982 -0.1686492 -0.078810595 0.11057352 0.12585574 -0.12464097 -0.057692267 -0.12663794
0.08923306 0.111561455 0.14296672 -0.066129096 0.13442692 0.06614187 0.027443564 0.1173419
0.056123115 0.105915084 0.0052663125 0.10268129 -0.11642385 -0.036555797 0.029611345 -0.14134568
0.6928936 -0.12447535 0.08269408 -0.10152704 -0.2045598 -0.02200854 -0.041922327 -0.019215817
-0.5639547 0.8940498 -0.11177716 -0.17004034 -0.034960255 0.014766036 0.1578134 0.3489911
-0.023193408 -0.021841405 -0.37888035 -0.05572649 -0.037612077 -0.34700975 0.096396655 -0.01600187
0.053975634 -0.12634957 0.1394767 0.5934096 0.021103181 0.015110768 -0.36065468 0.0013959489
0.01816372 -0.17964673 -0.059714217 -0.058082163 -0.05020101 0.024920719 -0.08171691 -0.13156123
0.059667308 -0.07100327 0.032549392 0.16215263 -0.2077473 0.14185943 0.0072023855 -0.25816485
-0.13020857 -0.10707486 -0.083116494 -0.005481048 -0.11302028 -0.12583725 -0.0217826 0.041666277
0.036104288 0.055328127 -0.07394025 -0.058570337 0.036137734 0.019602755 -0.104832254 0.027150571
-0.14350133 -0.08896087 0.07656953 -0.09987411 -0.03849643 0.042344328 0.036954395 -0.08066493
0.029498177 0.08561944 -0.09387315 -0.11621064 -0.13659795 -0.8922007 0.10544557 0.09843722
-0.0037658676 0.06809696 -0.14375114 0.106680505 0.017128976 0.014392941 0.07119144 0.031962935
0.13616416 0.04874712 0.06419172 0.034014188 -0.10440781 -0.117183745 -0.012935963 -0.13392006
-0.12770943 0.3314307 0.035247486 0.0035713923 0.5332186 -0.0280928 0.04021659 -0.0807971
00000000: 89f6 613d e530 83bc 43d5 a03d 948d 2dbd
00000010: d564 3bbd 6f00 e4bd f5ae 5fbd a740 db3d
00000020: 2a51 0cbe 8d40 cbbd e591 d73d 5f4f 02bc
00000030: 576a 0abe 272c 8e3c 9133 453a cd15 f8ba
00000040: 4f83 4a3c 430e d83d 3552 b93c 224a 393d
00000050: 0a89 b33c 7c77 793d 0128 3ebc 1d30 7abd
00000060: c19c e1bd 55b4 333d f606 03be afe7 5cbd
00000070: efcd 3b3d 8428 53bd f4be 363c 4098 27bd
00000080: b378 843d 7e2c a1bd 5a8d c4bd 7158 fcbd
00000090: f243 343d f34e a1bc fe62 d0bd e29f dabd
000000a0: d1cb 2cbd b825 cf3d a9a7 db3c 1f6c 96bd
000000b0: 84c0 7d3d dff7 5ebd 5306 68bd 6d33 d2bd
000000c0: d23e 34bc b0a2 11bc d192 4b3d 80ad 0bbc
000000d0: e83b 3fbf de99 6c3d f1cc 8abd 8ab5 263e
000000e0: ce1b c8bd c705 93bc 0c0d 96bd dea7 96bc
000000f0: 86de 0abf ca6e 083f d6c9 0d3e ea45 523e
00000100: 637b c63d 3971 263e aa15 0b3d c921 97bc
00000110: 40b7 263e 3226 64bd fb69 0dbe 3c60 0c3d
00000120: 5310 0a3e d9d7 b93e 51aa d8bc cf3b e13d
00000130: b3cb 353e b78b e43e de54 af3c 41ba 62bf
00000140: 13cb b13a adff 0f3e b4cd 013f bada af3d
00000150: 0f57 ebbd 8350 383e e62d 84bb 529f c83c
00000160: 93fa 9cbd af6d febd 1e7b 1c3d 2366 273e
00000170: b72f f7bd 851a 983e d669 3a3e 502b 4d3d
00000180: 8592 1ebd 6081 c03d 176a a2be 2a5f 903d
00000190: c068 ee3d abcf d3bd ae1e 033f 9734 ef3d
000001a0: 39b4 9a3d 502f b63d fea5 21be 6357 1f3e
000001b0: 3aab 2d3d 3fc2 d8be 046a eebe d8de 453e
000001c0: 7121 a3bc 4354 3c3c 253b f9bd b644 113d
000001d0: 203a ba3c 1539 433e 667e d53d 3cb8 753d
000001e0: 695f e8be 85a7 23bc 335a d73d 8507 61bc
000001f0: fd8f cd3d 8555 b9bb 7c11 283d be1c e4bd
00000200: bd3c 123e 60b2 2cbe 7367 a1bd 5f74 e23d
00000210: 54e0 003e c443 ffbd ba4e 6cbd 60ad 01be
00000220: d3bf b63d 557a e43d de65 123e b16e 87bd
00000230: 36a7 093e 6475 873d 53d1 e03c f350 f03d
00000240: 5ae1 653d 02ea d83d 0891 ac3b 914a d23d
00000250: a16f eebd 88bb 15bd 7e93 f23c ecbc 10be
00000260: 7a61 313f efec febd 845b a93d 69ed cfbd
00000270: 2078 51be 414b b4bc bfb6 2bbd 7d6a 9dbc
00000280: 565f 10bf 73e0 643f 6ceb e4bd 0e1f 2ebe
00000290: 7c32 0fbd 3eed 713c d699 213e f6ae b23e
000002a0: 1a00 bebc bfec b2bc 9bfc c1be 7641 64bd
000002b0: 1f0f 1abd 43ab b1be 9c6b c53d 5b16 83bc
000002c0: 8e15 5d3d c861 01be fbd2 0e3e b1e9 173f
000002d0: 94e0 ac3c 2893 773c bba7 b8be 46f8 b63a
000002e0: 15cc 943c 50f5 37be e596 74bd 90e7 6dbd
000002f0: 939f 4dbd 8926 cc3c 325b a7bd fdb7 06be
00000300: b565 743d 2a6a 91bd 8352 053d 570b 263e
00000310: b5bb 54be 9943 113e fd01 ec3b 2f2e 84be
00000320: 6555 05be 104a dbbd fb38 aabd 5d9a b3bb
00000330: 2d77 e7bd 7bdb 00be 6c71 b2bc 42aa 2a3d
00000340: 17e2 133d bf9f 623d fc6d 97bd 73e7 6fbd
00000350: 2905 143d f595 a03c 4bb2 d6bd e06a de3c
00000360: 03f2 12be 1e31 b6bd 7cd0 9c3d cc8a ccbd
00000370: 6fae 1dbd 3f71 2d3d 7e5d 173d a833 a5bd
00000380: 29a6 f13c 3f59 af3d 9140 c0bd d8ff edbd
00000390: 55e0 0bbe 4467 64bf d9f3 d73d 7499 c93d
000003a0: c6cc 76bb 6b76 8b3d 8033 13be 4f7b da3d
000003b0: 1152 8c3c 5fd0 6b3c d1cc 913d 91eb 023d
000003c0: 9e6e 0b3e 0fab 473d f376 833d 7652 0b3d
000003d0: c3d3 d5bd 08fe efbd 5df1 53bc 5722 09be
000003e0: 43c6 02be 49b1 a93e ab5f 103d 050e 6a3b
000003f0: 0481 083f df22 e6bc 27ba 243d f378 a5bd

5.bias f4 [10]
0.01074162 -0.1457792 -0.049771965 0.15380725 0.12434289 0.051872324 0.10023637 0.05347152
-0.07862554 0.11080615
00000000: 9ffd 2f3c 2547 15be b0dd 4bbd a67f 1d3e
00000010: 7ca7 fe3d 1378 543d ba48 cd3d f404 5b3d
00000020: 6d06 a1bd 56ee e23d

7.weight f4 [1, 10]
-0.032389656 0.9640737 0.21250995 0.07589397 0.33174393 0.21884999 0.18470097 -0.15090694
0.076746196 0.17723508
00000000: 04ab 04bd 89cd 763f 359c 593e 4c6e 9b3d
00000010: 57da a93e 361a 603e 4022 3d3e 5987 1abe
00000020: 1c2d 9d3d 1d7d 353e
