model8.pth (torch, 150895 bytes, 7 tensors)

1.weight f4 [150, 192]
0	0xbb39c607	-0.0028346793
1	0x3d9f196c	0.07768521
2	0x3d95c2b0	0.07312524
3	0xbc8342ae	-0.016023006
4	0x3cb4e50a	0.02208187
5	0xbd190255	-0.03735574
6	0x3d721cf1	0.059109632
7	0x3c5b168a	0.013372073
8	0xbc41dc83	-0.011832359
9	0x3d22632e	0.039645366
10	0x3d2d0f02	0.04225064
11	0xbd89e8f1	-0.06733883
12	0xbd24e4c0	-0.040257215
13	0xbb8261c0	-0.003978938
14	0x3d40464e	0.046942048
15	0x3d4d9beb	0.050197523
16	0xbc6b6885	-0.014368181
17	0xbc69fc2c	-0.014281314
18	0x3dae9ea0	0.08526349
19	0xbd561927	-0.05227008
20	0xbcd56c74	-0.026052691
21	0x3c3d197e	0.011541722
22	0xbd0d2af7	-0.034464803
23	0xbce72dec	-0.02822014
24	0xbcab87e6	-0.020938825
25	0x3d6f7bbe	0.05846762
26	0xbd796007	-0.060882594
27	0x3c759d9e	0.014991192
28	0x3c85ac42	0.01631749
29	0x3c948fde	0.018135007
30	0x3d811f6f	0.063048236
31	0xbc8df7ad	-0.017330015
32	0xbd13f4d3	-0.036122154
33	0xbc990b28	-0.018682078
34	0x3c10318a	0.0088008735
35	0xbbc5fcdd	-0.0060421065
36	0x3ccdbe07	0.025115026
37	0x3d866a56	0.06563251
38	0xbd8c3a8c	-0.068471044
39	0xbbd42cf7	-0.006475087
40	0xba88fe4f	-0.0010451766
41	0xbd064e57	-0.032789554
42	0x3d1ce448	0.038303643
43	0x3c37d226	0.011219537
44	0x3cbc7cb2	0.023008678
45	0x3d0d30a2	0.034470208
46	0xbd6b3606	-0.057424568
47	0xbd547ec1	-0.051878694
48	0xbcd6397f	-0.026150463
49	0xbd16264a	-0.03665761
50	0x3cb13030	0.021629423
51	0xbce5aea4	-0.028037377
52	0x3d483316	0.048876844
53	0x3d87df8c	0.06634435
54	0xbc908bcf	-0.017644791
55	0xbcc143bd	-0.02359187
56	0xbd496b02	-0.049174316
57	0x3d7d963f	0.061910864
58	0x3d879e43	0.06621983
59	0x3daa56ef	0.083173625
60	0xbd2f4e1b	-0.042799097
61	0x3da28347	0.079351954
62	0xbd52eadd	-0.051493514
63	0xbc8aa854	-0.016925968
64	0xbce6722a	-0.02813061
65	0xbc8dd37b	-0.017312756
66	0xbc92f5a4	-0.017939396
67	0x3ca24f0c	0.019813083
68	0xbd12fd14	-0.035885885
69	0x3d933ad6	0.071889564
70	0x3d9f7005	0.07785038
71	0xbd8dfd19	-0.0693304
72	0xbd4ec40a	-0.050479926
73	0xbc8d37d9	-0.017238544
74	0x3ccbd539	0.024881946
75	0xbce15eda	-0.027511049
76	0x3c36f141	0.011165918
77	0xbd08a52a	-0.033360638
78	0xbca6adfc	-0.020346634
79	0xbcac2d80	-0.02101779
80	0x3c2d978e	0.0105952155
81	0x3be120a7	0.0068703475
82	0x3d8c61b4	0.06854573
83	0x3d19d1a0	0.03755343
84	0xbd502e38	-0.050825328
85	0x3c910312	0.01770166
86	0x3c270301	0.010193587
87	0x3d16232c	0.036654636
88	0x3d1afeea	0.03784076
89	0xbcaadd8e	-0.020857599
90	0x3c97b888	0.018520609
91	0x3d3e5c56	0.046474777
92	0xbbee2b50	-0.007268347
93	0xbd5e403d	-0.05426048
94	0x3d0c910a	0.034318008
95	0xbd115b61	-0.035487536
96	0xbd8b4fad	-0.06802306
97	0x3c000dbd	0.007815775
98	0xbd408706	-0.04700377
99	0x3d2b5e52	0.041837998
100	0x3c7b5d58	0.015342079
101	0x3cd37305	0.025811682
102	0x3ca74a4f	0.020421175
103	0xbc9f51e5	-0.01944823
104	0x3aac0f03	0.0013127032
105	0x3ca039ff	0.019558905
106	0x3d43bbea	0.04778663
107	0x3d6a2b5b	0.057170253
108	0xbd45b556	-0.04826864
109	0x3c347361	0.011013837
110	0x3d6b005e	0.057373397
111	0xbd173a56	-0.036920868
112	0x3d1893ce	0.037250333
113	0x3dbc6d27	0.09200507
114	0x3b98ffa1	0.004669145
115	0xbd6bcb68	-0.05756703
116	0xbcb9a2d8	-0.022660658
117	0xbd16baff	-0.036799427
118	0xbccaa0f6	-0.024734955
119	0xbca19c27	-0.01972778
120	0x3d3ea894	0.046547487
121	0xbd2a0417	-0.041507807
122	0xbd2ca8fc	-0.042153344
123	0xbd692604	-0.05692102
124	0xbc9e52c6	-0.019326579
125	0x3ab1b69c	0.001355845
126	0x3d27c016	0.04095467
127	0xbccb4a86	-0.024815809
128	0xbc865a8e	-0.016400602
129	0xbc9d0dac	-0.019171558
130	0x3d2bfd33	0.041989516
131	0x3cb4e461	0.022081556
132	0xbc7f9411	-0.015599267
133	0x3c071849	0.008245536
134	0xbd8fcc64	-0.07021406
135	0xbd7a8a3a	-0.06116698
136	0xbd0f713e	-0.035020106
137	0xbd27ecc4	-0.04099728
138	0x3d8585ee	0.06519686
139	0x3cb9fe46	0.022704255
140	0x3d764114	0.060120657
141	0xbcdd3e9e	-0.027007397
142	0x3ccc83b5	0.024965147
143	0xbc20a3b9	-0.0098046595
144	0x3c3f972b	0.011693756
145	0x3dbbee1e	0.091762766
146	0xbc8cf13a	-0.01720487
147	0x3d7938e5	0.060845274
148	0x3c266085	0.010154848
149	0x3d83b047	0.064301066
150	0xbcc1611e	-0.02360588
151	0x3d747736	0.059684
152	0x3c962c88	0.018331781
153	0xbd7d57a9	-0.061851177
154	0x3d699df6	0.05703541
155	0x3d2eadab	0.04264609
156	0xbd1dc8e6	-0.03852167
157	0x3bb5884e	0.0055399304
158	0x3d767aaa	0.060175575
159	0x3d90d5bc	0.070720166
160	0xbc065042	-0.008197846
161	0x3d4c12c1	0.049822573
162	0x3d38f567	0.04515591
163	0x3c8f72f9	0.017510878
164	0x3d405369	0.046954546
165	0xbd7b1727	-0.061301377
166	0xbcd3a34c	-0.025834702
167	0x3d4bcfe7	0.049758818
168	0x3d614018	0.054992765
169	0xbc739441	-0.014866889
170	0x3d541a81	0.05178309
171	0x3d2fed01	0.042950634
172	0xbb5b9d8e	-0.0033510658
173	0x3d5bde94	0.053679064
174	0x3ca67c68	0.020322993
175	0xbcd05185	-0.025429497
176	0x3d1e9198	0.038713068
177	0x3d37485c	0.04474674
178	0x3da18ef3	0.078885935
179	0x3d8aec2f	0.0678333
180	0x3d670461	0.05640066
181	0x3da12b06	0.07869534
182	0xbd1334c4	-0.035938993
183	0x3cf187e9	0.029483752
184	0xbd58e853	-0.052955937
185	0x3b4a54a3	0.0030873201
186	0xbdb7bd15	-0.089716114
187	0xbcd56730	-0.02605018
188	0xbce772cb	-0.02825298
189	0xbd258cdd	-0.04041754
190	0x3d2ce131	0.042206947
191	0x3cefa7f2	0.029254887
192	0x3d4d660d	0.05014615
193	0xbc453c77	-0.012038342
194	0xbc9e88d0	-0.019352347
195	0xbd3b8990	-0.045785487
196	0xbd8d1884	-0.068894416
197	0x3d732e2a	0.059370197
198	0x3b4708d2	0.0030370248
199	0xbcae67cf	-0.021289734
200	0x3cb16853	0.021656191
201	0xbcdb1bcd	-0.026746655
202	0xbce392c6	-0.027779948
203	0x3cdec67a	0.02719425
204	0xbd801817	-0.06254595
205	0xbd45f03a	-0.0483248
206	0xbcd506da	-0.026004244
207	0xbd20f5ca	-0.039296903
208	0x3b4306a7	0.0029758604
209	0xbd3fda72	-0.046839185
210	0xbda3a557	-0.079905204
211	0x3d722f51	0.059127156
212	0xbbf33713	-0.007422337
213	0xbd991306	-0.074743316
214	0xbb981253	-0.0046408563
215	0x3c71132f	0.014714046
216	0x3ac276c1	0.0014836417
217	0x3d434e6b	0.047682207
218	0xbbf49ed7	-0.0074652242
219	0xbd0335dd	-0.03203379
220	0xbc12d8f7	-0.008962861
221	0x3d5eb856	0.054375015
222	0xbd92a19f	-0.07159733
223	0xbd1f0035	-0.038818557
224	0x3d3a9e8e	0.045561366
225	0xbb37c477	-0.0028040686
226	0x3ac373dd	0.0014911849
227	0xbd8e17ab	-0.06938108
228	0xbc77b872	-0.015119659
229	0xbd801d25	-0.06255559
230	0xbd27ec0d	-0.0409966
231	0xbcd46bfa	-0.025930393
232	0x3d24caa3	0.040232312
233	0xbd766523	-0.060155045
234	0xbd995199	-0.07486267
235	0x3d70291a	0.058632948
236	0x3c4e1b7f	0.012579798
237	0xbd2465db	-0.0401362
238	0x3d28a3da	0.041171886
239	0xbd7d42c1	-0.06183124
240	0xbd8446dd	-0.064588286
241	0x3d486638	0.04892561
242	0xbcb85072	-0.022499297
243	0xbd21291d	-0.03934585
244	0xbadde325	-0.0016928656
245	0x3d20eb26	0.039286755
246	0xbd1f0142	-0.03881956
247	0xbb8b9818	-0.0042600743
248	0xbba09139	-0.0049001244
249	0xbcd3fe03	-0.025877958
250	0xbc8f261c	-0.017474227
251	0xbd8d4cce	-0.06899415
252	0x3ced2c62	0.028951827
253	0x3d552aa9	0.052042637
254	0xbc820e7f	-0.015876053
255	0x3ce09789	0.027416008

1.bias f4 [150]
0	0x3d56c9c9	0.05243853
1	0xbd2fabf1	-0.042888585
2	0xbcb8a26b	-0.022538384
3	0xbc32cea5	-0.010913526
4	0xbcaad781	-0.020854713
5	0x3d567f7b	0.05236767
6	0x3d36933f	0.04457402
7	0xbb4ee61b	-0.003157026
8	0xbcfdc0e4	-0.030975766
9	0x3cb027b4	0.021503307
10	0xbd820f43	-0.06350567
11	0xbd85e742	-0.065382496
12	0xbb86eb67	-0.0041174176
13	0xbc035295	-0.008015295
14	0x3d30fcfc	0.043210015
15	0xbc470a05	-0.012148385
16	0x3cacb6ef	0.021083323
17	0x3bc5ad4e	0.0060326224
18	0x3c98a95d	0.018635446
19	0x3d58b459	0.052906368
20	0xbd99172f	-0.07475125
21	0xbda3871e	-0.07984756
22	0x3c8ab126	0.016930174
23	0x3d090210	0.033449233
24	0xbcac1058	-0.021003887
25	0x3d393aeb	0.045222204
26	0x3d30c83c	0.04315971
27	0xbd8bcca1	-0.06826139
28	0xbd0565db	-0.03256784
29	0xbc945af4	-0.018109776
30	0x3d733540	0.059376955
31	0xbbc4190c	-0.005984431
32	0x3b73796d	0.0037151233
33	0x3ca28577	0.019839032
34	0xbd9ce68b	-0.0766116
35	0xbd83e3fb	-0.06439968
36	0xba8d65b1	-0.0010787753
37	0x3c207854	0.009794313
38	0xbcade938	-0.021229371
39	0xbd90dac0	-0.07072973
40	0x3d08151d	0.03322326
41	0xbc7e74c0	-0.015530765
42	0xbd3ce794	-0.046119288
43	0x3d6c6f3c	0.05772327
44	0x3d8564ae	0.06513344
45	0xbce472c2	-0.027886752
46	0x3d353e54	0.044248894
47	0x3d61e49d	0.055149663
48	0x3d0eb9aa	0.03484503
49	0x3d802011	0.06256116
50	0x3ca9f1aa	0.020745117
51	0xbd7cfc36	-0.061763965
52	0xbd9266ec	-0.07148537
53	0xbd36b2bc	-0.044604048
54	0x3d68e458	0.05685839
55	0xbc9d27eb	-0.019184073
56	0x3cf2caf0	0.029637784
57	0xbd21b3f3	-0.039478254
58	0xbda73c86	-0.08165841
59	0xbd889e8d	-0.06670866
60	0x3b973323	0.0046142503
61	0x3d0ce364	0.034396544
62	0xbc1762a5	-0.009239827
63	0x3b82c927	0.0039912644
64	0xbc041516	-0.008061668
65	0x3cd80b94	0.026372708
66	0xbc8a1140	-0.016853929
67	0x3c52fdc7	0.012877888
68	0xbd247dab	-0.04015891
69	0xbd094a01	-0.03351784
70	0x3d0611cf	0.032731827
71	0xbd38dbc8	-0.045131475
72	0xbbf30e66	-0.007417488
73	0xbd919a40	-0.07109499
74	0x3d28bc13	0.041194987
75	0xbd01c12f	-0.031678375
76	0x3d709621	0.058736924
77	0xbcce40b4	-0.025177337
78	0xbd1c3abd	-0.038141955
79	0x3cbe5c43	0.023237353
80	0xbd92dff6	-0.071716234
81	0xbd54bb36	-0.05193635
82	0x3d5f75bd	0.054555643
83	0xbd5713de	-0.05250918
84	0x3d7421c5	0.059602518
85	0xbd05ef26	-0.032698773
86	0xbcd0bf53	-0.025481855
87	0x3c61b3a2	0.013775738
88	0xbd3960ba	-0.04525826
89	0xbd4ff9a6	-0.050775193
90	0x3d93d3c2	0.07218124
91	0x3d156acc	0.036478803
92	0xbc4ad44a	-0.012379715
93	0xbd7ff0de	-0.06248557
94	0x3c930b09	0.017949598
95	0xba870d64	-0.0010303673
96	0x3d8b14e9	0.06791098
97	0xbccdad08	-0.025106922
98	0x3d41051e	0.04712402
99	0xbd3fe693	-0.046850752
100	0x3c660d4f	0.014041259
101	0x3cd5f7e9	0.02611919
102	0xbcee85d4	-0.029116549
103	0xbb2be0e5	-0.0026226577
104	0xbd452fe6	-0.048141383
105	0xbd304720	-0.04303658
106	0xbcde7b08	-0.027158275
107	0x3cf69543	0.03010047
108	0x3bdd7e5c	0.006759448
109	0xbb7d2fec	-0.00386333
110	0x3dadc838	0.08485454
111	0xbd95c9c7	-0.073138766
112	0x3d3967bc	0.045264944
113	0xbd887f99	-0.06664962
114	0x3cbec11f	0.023285447
115	0x3cf15756	0.02946059
116	0xbc6e2e56	-0.014537415
117	0xbcc03871	-0.023464413
118	0x3d16cfbe	0.036819212
119	0xbc81a638	-0.01582633
120	0xbd52dbac	-0.051479027
121	0x3cef3624	0.029200621
122	0x3d42c5a0	0.04755175
123	0xbd990e06	-0.07473378
124	0x3d04ccba	0.032421805
125	0xbd9c0f5d	-0.07620118
126	0xbb986054	-0.004650155
127	0x3d60fa15	0.054925997
128	0x3d169dbb	0.036771517
129	0x3cc3db8b	0.023908397
130	0xbd3641ac	-0.044496223
131	0x3cb40148	0.021973267
132	0x3d42cd2f	0.04755896
133	0xbd602cf9	-0.05473039
134	0xbd6c84bb	-0.05774377
135	0x3d54215a	0.05178962
136	0x3b731289	0.0037089905
137	0xbd5f29d8	-0.054483265
138	0x3d93d07e	0.07217501
139	0x3bf3cabb	0.007439939
140	0x3d247b46	0.040156625
141	0xbd4c1ac3	-0.04983021
142	0x3ce8d97f	0.028424023
143	0xbd4aa2b6	-0.04947158
144	0xbd6361ba	-0.05551312
145	0x3d63c90a	0.055611648
146	0xbc1a20c2	-0.009407224
147	0xbd284887	-0.041084792
148	0xbd6a0503	-0.057133686
149	0x3c15df3b	0.009147461

3.weight f4 [50, 150]
0	0x3c5d4922	0.013506206
1	0xbcdf9712	-0.027293716
2	0x3da7d9f0	0.08195865
3	0x3d177431	0.036976043
4	0xbd477f9c	-0.048705682
5	0x3d937623	0.07200267
6	0x3d1921c7	0.03738573
7	0x3d1a602a	0.037689365
8	0xbc313155	-0.010814984
9	0xbbf4d826	-0.007472056
10	0x3a22a881	0.00062049186
11	0x3d935d18	0.071954906
12	0xbb0b91f4	-0.0021296712
13	0xbca88915	-0.020573178
14	0x3da56c47	0.08077293
15	0xbceb24ac	-0.02870401
16	0x3d8120e0	0.063050985
17	0xbd8abdc9	-0.0677448
18	0xbbea12e8	-0.007143367
19	0x3d5ac3bd	0.053409327
20	0x3d0b0ec5	0.033949632
21	0xbc90971a	-0.017650176
22	0x3c99ed01	0.01878977
23	0xbc9e2f4d	-0.019309664
24	0xbce1231a	-0.027482558
25	0xbcbda93b	-0.023151984
26	0x3d17da58	0.037073463
27	0xbd27eb51	-0.0409959
28	0x3dac5d62	0.08416249
29	0x3ce69038	0.02814494
30	0xbd0b43b6	-0.03400012
31	0xbc6b87eb	-0.014375667
32	0x3c6d9fbe	0.014503418
33	0xbce62802	-0.02809525
34	0x3cce2e2f	0.025168506
35	0xbcbf3056	-0.023338478
36	0x3c7bf5fa	0.01537847
37	0x3be5a2a3	0.007007913
38	0x3d8b448a	0.06800182
39	0xbcff8e98	-0.031195924
40	0xbc677d75	-0.014129032
41	0x3cec97e2	0.028881017
42	0xbc06e8bd	-0.0082342
43	0xbb5148d2	-0.0031934273
44	0xbc787b51	-0.01516612
45	0x3c535a4f	0.012899949
46	0xbd00bff2	-0.031433053
47	0xbd3c0a2a	-0.04590813
48	0xbd2a3c21	-0.04156125
49	0xbd80cad1	-0.06288684
50	0x3b073f24	0.0020637
51	0xbc3d9f16	-0.011573574
52	0xbbb80829	-0.005616207
53	0xbc46017b	-0.012085314
54	0x3da56b3a	0.080770925
55	0x3c2638c4	0.01014537
56	0x3d7ce2b2	0.06173963
57	0x3d8ece41	0.069729336
58	0x3cad649d	0.02116614
59	0x3d58a3cf	0.052890595
60	0xbda6a45c	-0.08136818
61	0x3da0b581	0.07847119
62	0x3d373cd0	0.04473573
63	0xbd84c1ef	-0.064823024
64	0x3c0a1593	0.008427995
65	0x39982151	0.00029016522
66	0xbc7eaada	-0.015543664
67	0xbc56a4c4	-0.013100807
68	0xbc971e1c	-0.018446974
69	0x3d9be6eb	0.076124035
70	0x3d9565ef	0.07294833
71	0x3c0f998f	0.008764639
72	0x3d45d24b	0.048296254
73	0x3c51e060	0.012809843
74	0xbbaffa29	-0.0053703976
75	0xbd32c8e7	-0.043648627
76	0x3d903723	0.070417665
77	0x3d80fb84	0.06297973
78	0x3bc873d1	0.006117322
79	0xbd8ef626	-0.06980543
80	0x3cf84e12	0.030310664
81	0xbcea517d	-0.02860331
82	0xbd997b55	-0.07494227
83	0x3da279b1	0.07933367
84	0xbd57e2c0	-0.05270648
85	0xbd65cd58	-0.056104034
86	0xbabf721a	-0.0014606148
87	0xbbb6e23a	-0.0055811675
88	0x3ca47579	0.020075547
89	0xbcaddec0	-0.02122438
90	0xba803036	-0.0009779993
91	0xbd56a3ac	-0.052402183
92	0xbd15ff82	-0.036620624
93	0x3d4326d7	0.047644462
94	0xbd687cca	-0.056759633
95	0xbcaca1cb	-0.021073243
96	0x3d7a32f9	0.061083768
97	0x3cfa59a3	0.03056032
98	0xbd01e3a8	-0.03171125
99	0xba367a3d	-0.0006960964
100	0x3d844cd8	0.06459969
101	0x3ba07398	0.0048965923
102	0x3d1f5880	0.03890276
103	0xbd51bc6a	-0.051205076
104	0xbc922758	-0.017841026
105	0xbd2dbc19	-0.042415712
106	0x3d3ad146	0.045609735
107	0x3d464796	0.048408113
108	0x3d55b0bf	0.05217051
109	0xbd11f90b	-0.035637897
110	0xbd1ff1be	-0.039048903
111	0x3c9326ba	0.017962802
112	0xbd8282b5	-0.06372587
113	0xbcd04a5e	-0.025426086
114	0xbd0c9081	-0.034317497
115	0x3d0770e6	0.033066653
116	0xbc3b9159	-0.011448228
117	0x3db1243c	0.08649489
118	0x3c97e09d	0.018539721
119	0xbcf85495	-0.03031377
120	0xbd5134db	-0.051075798
121	0xbd8360bd	-0.06414936
122	0x3d38faa3	0.0451609
123	0x3d659406	0.05604937
124	0xbb2bcb58	-0.0026213732
125	0x3d6f75d6	0.058461986
126	0xbd762d2f	-0.060101684
127	0xbd0a729c	-0.033800706
128	0x3c9f3ee3	0.019439166
129	0x3c6355a3	0.013875398
130	0xbd979d03	-0.074029945
131	0x3c94fdb3	0.01818738
132	0xbd8eeafd	-0.06978414
133	0x3d3128b7	0.04325172
134	0x3d82db43	0.06389477
135	0x3d9ff94a	0.0781122
136	0x3d97ef8c	0.07418737
137	0xbd488a6a	-0.048960127
138	0xbca5553e	-0.020182248
139	0xbc975d2e	-0.018477049
140	0xbcf4a340	-0.029863
141	0xbc805ed6	-0.015670221
142	0xbca28ba9	-0.019841986
143	0x3c069cd6	0.008216104
144	0xbb29c72e	-0.0025906074
145	0xbb8f1945	-0.004367026
146	0x3d203c12	0.039119788
147	0x3bd75dfa	0.006572482
148	0x3d804fa1	0.06265188
149	0xbc4f5ee3	-0.0126569
150	0x3d24f4b1	0.04027242
151	0x3d3b0557	0.04565939
152	0xbd5e08e7	-0.05420771
153	0x3c2d3280	0.010571122
154	0x3da331e9	0.07968504
155	0xbd17732b	-0.036975067
156	0xbbcc9fda	-0.0062446417
157	0xbcdf286c	-0.027240954
158	0x3d748837	0.059700217
159	0xbbfce669	-0.0077178967
160	0x3d564d98	0.052320093
161	0xbb72715a	-0.0036993832
162	0xbb5e45a4	-0.003391602
163	0x3d8e2b95	0.06941906
164	0x3dacb5a3	0.08433082
165	0x3cf6232e	0.030046072
166	0x3da11010	0.07864392
167	0x3c90ad3b	0.017660728
168	0x3d1e1ec0	0.038603544
169	0xbd043a96	-0.032282434
170	0xbc450278	-0.012024514
171	0xbd87d79a	-0.066329196
172	0x3d916330	0.07098997
173	0xbd59ac5d	-0.053142894
174	0xbcc3a62c	-0.023882948
175	0x3d9fbb1b	0.077993594
176	0x3c769ab7	0.015051535
177	0x3d65073a	0.055915095
178	0x3d8f36b1	0.069928534
179	0x3cd38fdd	0.025825435
180	0xbd74c98e	-0.05976253
181	0x3daf4ea5	0.08559922
182	0x3db198d7	0.0867173
183	0x3dac70bb	0.08419939
184	0x3a61c05b	0.0008611732
185	0xbcd1fad9	-0.025632309
186	0x3da55b01	0.08073998
187	0xbcc9f16c	-0.024651252
188	0x3d94be07	0.07262807
189	0x3c42f518	0.011899255
190	0xbbc9ae5c	-0.0061548185
191	0x3d3b5972	0.0457396
192	0x3cecd163	0.028908437
193	0xbd225f42	-0.039641626
194	0xbcc83f0b	-0.024444124
195	0xbc1a1bd6	-0.009406051
196	0xbd634a8e	-0.055491023
197	0xbd07742d	-0.03306978
198	0x3d9254cf	0.07145082
199	0xbd829a9a	-0.06377144
200	0x3da7ee9a	0.081998065
201	0x3df8f414	0.12155929
202	0x3d741520	0.05959046
203	0xbd1513b1	-0.036395732
204	0xbd7fba19	-0.062433336
205	0x3da837f6	0.08213799
206	0xbd06f9cb	-0.032953065
207	0x3d23ab21	0.039958123
208	0xbd93c6eb	-0.07215675
209	0x3d6c89f0	0.057748735
210	0xbd44eeae	-0.048079185
211	0x3bbefc69	0.0058284295
212	0x3cbd0035	0.023071388
213	0xbd53f5c2	-0.051748045
214	0x3da8b115	0.08236901
215	0x3d319732	0.04335708
216	0x3c425a74	0.011862386
217	0xbd43cdc9	-0.047803674
218	0xbd3b5362	-0.045733817
219	0x3c832f7e	0.016013857
220	0xbd65dcf1	-0.05611891
221	0x3c31d5f2	0.010854231
222	0x3d2f82fe	0.042849533
223	0x3c6d0a2b	0.014467756
224	0x3c36e982	0.011164071
225	0x3db68537	0.089121275
226	0x3c1eedb9	0.009700232
227	0x3dc20f70	0.09475601
228	0xbd633803	-0.05547334
229	0x3d8024fc	0.06257054
230	0x3c307c82	0.0107718725
231	0xbe1115eb	-0.14168517
232	0xbce3e0de	-0.027817186
233	0x3d2fca62	0.042917617
234	0x3d87b97c	0.06627175
235	0x3c18989d	0.00931373
236	0x3d83ce20	0.064357996
237	0x3da22bc7	0.07918506
238	0x3bb71720	0.0055874735
239	0xbcafef9d	-0.021476561
240	0xbce3e152	-0.027817402
241	0x3c0808fd	0.008302924
242	0x3c6a490e	0.014299644
243	0x3c006192	0.007835763
244	0x3da1872d	0.07887111
245	0xbd0d2a73	-0.03446431
246	0xbbb054c8	-0.0053812005
247	0xbbb706ce	-0.005585528
248	0x3c97f0a0	0.018547356
249	0x3d1b62d9	0.037936065
250	0xbd9d4ced	-0.07680688
251	0x3d97055e	0.073740706
252	0x3d3f8760	0.046759963
253	0x3d085da0	0.033292413
254	0xbbec9158	-0.0072194748
255	0xbc767ace	-0.015043927

3.bias f4 [50]
0	0xbcfcf936	-0.030880552
1	0x3d38dc03	0.045131695
2	0x3d308a41	0.0431006
3	0xbbaac928	-0.005211968
4	0xbb632ef5	-0.003466544
5	0xbd1454dc	-0.03621374
6	0xbda6b52b	-0.08140024
7	0xbbfd4972	-0.0077297026
8	0xbd3985ad	-0.0452935
9	0xbd3b6590	-0.045751154
10	0xbc297860	-0.010343641
11	0xbd901b3e	-0.07036446
12	0xbd846c3e	-0.06465958
13	0x3d909961	0.07060505
14	0x3b7f1b36	0.003892613
15	0xbc90b3ee	-0.017663922
16	0x3d72e1dd	0.05929743
17	0xbcc50870	-0.024051875
18	0x3d242d88	0.040082484
19	0x3d89e21a	0.067325786
20	0xbca10dfb	-0.019659987
21	0xbc873086	-0.01650263
22	0xbd053073	-0.032516908
23	0xbd7f2b7f	-0.06229734
24	0x3d2c8992	0.042123385
25	0x3cf35dd6	0.02970783
26	0x3d2bb264	0.041918173
27	0x3db61616	0.08890931
28	0x3dac46b9	0.08411927
29	0xbd26616f	-0.040620264
30	0x3d20e471	0.03928036
31	0x3cf6692e	0.03007945
32	0x3d8e20de	0.06939863
33	0xbbb7af46	-0.005605611
34	0x3d920302	0.0712948
35	0xbd783ecd	-0.060606766
36	0xbdac49cb	-0.084125124
37	0xbd80c657	-0.0628783
38	0xbb14f336	-0.0022727973
39	0xbc1e39c8	-0.009657331
40	0xbdab8d80	-0.08376598
41	0x3d6e24cd	0.058140565
42	0xbd81e367	-0.06342202
43	0x3d5d4ede	0.05403029
44	0xbd572150	-0.052522004
45	0xbcc8c969	-0.024510102
46	0x3d3c7e24	0.046018735
47	0xbd87feef	-0.066404216
48	0x3b91969a	0.004443002
49	0xbc89826e	-0.016785827

5.weight f4 [10, 50]
0	0x3d4761d1	0.04867727
1	0x3d624764	0.055243865
2	0x3e16bf1a	0.14721337
3	0xbd909851	-0.07060302
4	0x3dcc2b3f	0.09969186
5	0xbdfebc9a	-0.12438317
6	0xbb224bb9	-0.0024764373
7	0x3dcdd54e	0.1005045
8	0xbe305472	-0.17219713
9	0xbeabaee1	-0.3353186
10	0xbd62cbde	-0.055370204
11	0xbf1baa2b	-0.6080653
12	0x3d8904f4	0.06690398
13	0x3e0f5f63	0.14001231
14	0xbd8a6f73	-0.067595385
15	0xbd9125a8	-0.070872605
16	0xbdc2469a	-0.094861224
17	0xbcf571e9	-0.029961543
18	0x3db44074	0.08801356
19	0x3d5424b9	0.051792834
20	0x3d409ba8	0.047023445
21	0x3d92f676	0.07175915
22	0xbd5d7290	-0.054064333
23	0x3d0d10c9	0.034439836
24	0xbe09ead0	-0.1346848
25	0x3d18561d	0.0371915
26	0x3d549dd0	0.051908314
27	0x3d5cac5b	0.05387531
28	0x3c83c0d4	0.016083159
29	0xbf55e36b	-0.8355014
30	0xbf0fe3e7	-0.56207126
31	0x3d90f619	0.070781894
32	0xbdccc147	-0.09997802
33	0xbdd70553	-0.104990624
34	0xbd22ba5b	-0.039728504
35	0xbd96123b	-0.07327696
36	0x3dca7750	0.09886038
37	0xbc336e23	-0.010951552
38	0xbd972a2c	-0.073810905
39	0xbe01e41a	-0.1268467
40	0xbe012fe8	-0.12615931
41	0xbc52641d	-0.012841252
42	0xbd987a9a	-0.074452594
43	0xbf40566c	-0.7513187
44	0xbd0f4829	-0.034980927
45	0x3c2485eb	0.010041694
46	0xbdf3474c	-0.11878833
47	0x3d6fef7f	0.05857801
48	0xbdfdb3de	-0.123878226
49	0xbd98c216	-0.07458894
50	0xbdaf0cbe	-0.08547352
51	0xbd7e0604	-0.062017456
52	0x3def4157	0.116823845
53	0x3b1aab0d	0.002360049
54	0x3d9d62c1	0.076848514
55	0xbdf80da6	-0.12111978
56	0xbde98e12	-0.11404051
57	0xbd543d45	-0.051816244
58	0x3d85bfb3	0.06530704
59	0x3d512563	0.051061045
60	0xbddf82a2	-0.10913588
61	0x3c738b79	0.014864796
62	0xbd3e1391	-0.04640538
63	0xbd9fe9d5	-0.07808272
64	0x3912769d	0.00013967832
65	0xbe39012e	-0.18066856
66	0x3d9500cd	0.07275543
67	0x3dfcdcb6	0.12346785
68	0xbd9d9034	-0.0769352
69	0xbdf3453b	-0.11878439
70	0x3bc8f89f	0.0061331536
71	0xbdb1ec5b	-0.08687659
72	0x3dc203e4	0.09473398
73	0xbd05ecfd	-0.032696713
74	0xbd0f3683	-0.034964096
75	0x3de81a4b	0.1133314
76	0x3cc1a3a6	0.023637604
77	0x3e08785b	0.13327162
78	0xbce363ce	-0.027757552
79	0xbed8f753	-0.42376193
80	0xba54fddc	-0.0008124986
81	0xbdaa5076	-0.08316128
82	0xbcef51fc	-0.029213898
83	0xbdbf0452	-0.09326996
84	0xbbedbc1f	-0.007255092
85	0xbda2cd68	-0.079493344
86	0x3df61602	0.120159164
87	0xbd3c7a85	-0.04601528
88	0xbe01aaa4	-0.1266275
89	0xbd3f6b33	-0.046733093
90	0xbd33126e	-0.043718748
91	0x3dc33a2b	0.09532579
92	0xbd5b3b36	-0.053523265
93	0x3d7ad3fa	0.061237313
94	0x3d21c06b	0.039490145
95	0xbd8c93fa	-0.06864162
96	0xbc7eddc3	-0.015555802
97	0xbbfda1a3	-0.007740216
98	0xbd50f140	-0.051011324
99	0x3b98b617	0.0046603787
100	0xbd4b0b7b	-0.049571496
101	0x3de5fcf4	0.112298876
102	0xbcbdd6f5	-0.023173789
103	0xbd93cc0d	-0.07216654
104	0x3d6c6096	0.0577093
105	0xbb37e367	-0.0028059126
106	0xbc5d7317	-0.013516209
107	0x3dda9af6	0.10674088
108	0xbcb6459d	-0.022249991
109	0x3d764741	0.060126547
110	0xbce5a674	-0.028033473
111	0xbd8511cb	-0.06497534
112	0x3dce06c1	0.10059882
113	0x3c466e16	0.0121112075
114	0xbe0aa4f4	-0.13539487
115	0xbde653a5	-0.11246423
116	0x3dc876fe	0.09788321
117	0xbcfdaeb5	-0.030967096
118	0xbdebe5a4	-0.1151841
119	0xbdd1432b	-0.102178894
120	0xbd0da3cc	-0.034580037
121	0x3d21c251	0.039491955
122	0xbe178719	-0.1479763
123	0x3e073851	0.13205077
124	0x3d86c1b7	0.06579917
125	0x3dea68b0	0.11445749
126	0xbd7774fa	-0.060414292
127	0x3da60979	0.081072755
128	0x3e00d9d9	0.12583102
129	0xbf1ae5c4	-0.60506845
130	0xbc652aac	-0.013987225
131	0x3e05384a	0.13009754
132	0x3be5fa90	0.007018395
133	0x3dcca500	0.09992409
134	0x3d1e3d2d	0.03863256
135	0xbdbef1f3	-0.09323492
136	0xbc5e38ff	-0.013563394
137	0xbd331131	-0.043717567
138	0xbe08dfea	-0.13366666
139	0xbc8f109c	-0.017463975
140	0x3ca36127	0.019943787
141	0xbde13b1b	-0.109976016
142	0x3df2dbe0	0.11858344
143	0x3aa85374	0.0012842254
144	0xbc9f73bf	-0.019464372
145	0x3d850dfb	0.06496807
146	0xbe13d02a	-0.14434877
147	0xbde72a19	-0.11287326
148	0x3e040e84	0.12896162
149	0x3dcdd487	0.10050302
150	0xbd962adb	-0.07332393
151	0x3d1e2bca	0.03861598
152	0x3c3f91e3	0.011692497
153	0xbde76242	-0.11298038
154	0x3d62c896	0.055367075
155	0xbd06ac55	-0.032879192
156	0xbc1f4c3c	-0.009722766
157	0x3dff8d2b	0.124780975
158	0xbe07fa5e	-0.13279101
159	0xbe137e91	-0.1440375
160	0x3c2bd832	0.010488557
161	0xbdea4b6c	-0.11440167
162	0x3e002ee5	0.12517889
163	0x3d564b89	0.05231813
164	0xbd6f7d11	-0.058468882
165	0x3e8ebe24	0.2787944
166	0xbe0446eb	-0.12917678
167	0xbc9e04a1	-0.019289317
168	0xbe02116b	-0.12701957
169	0xbdc015f7	-0.093791895
170	0xbe037059	-0.12835826
171	0x3dad8ede	0.084745154
172	0x3e01bf90	0.12670732
173	0xbe0cef58	-0.13763177
174	0xbc8cf44d	-0.017206335
175	0x3d863dad	0.065547325
176	0x3ddbb7b7	0.107284
177	0xbd82b952	-0.06383003
178	0xbd880cfe	-0.06643103
179	0xbe7a9835	-0.24472125
180	0xbc684b85	-0.0141781615
181	0xbd4ad93e	-0.049523585
182	0xbcdc9c53	-0.02693001
183	0xbc8e58f4	-0.0173764
184	0xbdd1a525	-0.10236577
185	0xbcc7782d	-0.024349296
186	0xbd668434	-0.056278422
187	0x3e0a8413	0.13526945
188	0x3d954a04	0.07289508
189	0xbcf30346	-0.029664647
190	0x3ab9691f	0.0014145708
191	0x3cc7ebbc	0.0244044
192	0x3e672ff0	0.2257688
193	0x3c46be94	0.012130398
194	0x3d75e083	0.060028564
195	0x3d15f9f7	0.03661534
196	0xbdcd7eb7	-0.100339346
197	0x3e025e34	0.12731248
198	0xbd853998	-0.06505126
199	0x3e035ded	0.12828799
200	0xbdd7dda9	-0.10540325
201	0x3d81eede	0.063443884
202	0x3c8828aa	0.016620953
203	0x3dc685bf	0.09693479
204	0x3e10d70d	0.14144535
205	0xbd4cb179	-0.04997394
206	0x3d7f572c	0.062338993
207	0xbd9a2d27	-0.075281434
208	0xbd58cc98	-0.05292949
209	0x3d8b02fb	0.06787678
210	0x3dbc64eb	0.09198936
211	0x3da4b7f8	0.08042902
212	0xbd9727ad	-0.073806144
213	0x3d6e0842	0.058113344
214	0x3d41d0da	0.047318317
215	0xb9dffdc8	-0.00042722956
216	0x3bd92773	0.006627017
217	0x3dc01715	0.093794025
218	0x3e096fef	0.13421606
219	0x3b31e374	0.002714363
220	0xbd86e843	-0.06587269
221	0xbd8c4906	-0.068498656
222	0xbe080dab	-0.13286464
223	0x3db4163b	0.087933026
224	0xbdfe0f9a	-0.124053195
225	0x3c863132	0.01638088
226	0x3dc01131	0.09378279
227	0xbd83ea61	-0.064411886
228	0xbcf8e8d0	-0.030384451
229	0x3f274e0d	0.6535347
230	0x3e0cf867	0.13766633
231	0x3d8284d0	0.06372988
232	0xbc3bfaf2	-0.011473404
233	0x3d876868	0.06611711
234	0xbdec53e3	-0.115394376
235	0x3d0414d9	0.032246444
236	0xbdf09fd0	-0.11749232
237	0x3d94caa5	0.07265214
238	0xbe0087d5	-0.12551816
239	0x3dbfdce6	0.09368305
240	0xbca66d51	-0.020315798
241	0x3cc4c906	0.024021637
242	0xbddc09f5	-0.10744087
243	0x3d74d323	0.05977167
244	0x3d4dbde3	0.05022992
245	0x3d279b6c	0.040919706
246	0xbd6dc360	-0.058047652
247	0x3e067aa7	0.13132726
248	0xbd6ce3fc	-0.05783461
249	0xbdbe63fd	-0.09296415
250	0x3da17c46	0.078850314
251	0xbbe530ce	-0.0069943434
252	0x3db1e2d3	0.086858414
253	0xbda181dd	-0.078860976
254	0xbdd121f9	-0.10211558
255	0x3d8aa211	0.06769193

5.bias f4 [10]
0	0xbdb86ea1	-0.09005476
1	0xbdd8d731	-0.105879195
2	0x3da43dca	0.08019598
3	0xbd6903e6	-0.056888483
4	0x3d76c2bc	0.060244307
5	0x3e088c94	0.13334876
6	0x3cff26de	0.031146463
7	0x3d61dcd7	0.05514225
8	0x3e0719a0	0.13193369
9	0x3da17bec	0.07884964

7.weight f4 [1, 10]
0	0xbf313107	-0.69215435
1	0xbd87c8f1	-0.066301234
2	0xbe1af21d	-0.15131421
3	0xbc95d011	-0.01828769
4	0x3e9a2edb	0.30113873
5	0x3e48c719	0.196072
6	0xbab04c1f	-0.001345042
7	0x3e3d3350	0.18476605
8	0x3ea11569	0.31461647
9	0xbddabe1b	-0.10680791
