model12.pth (torch, 294895 bytes, 7 tensors)

1.weight f4 [150, 432]
0	0xbd16eb1a	-0.036845304
1	0xbd19b294	-0.03752382
2	0xbd092344	-0.033480898
3	0x3cabe0ac	0.020981155
4	0xbd35e1ce	-0.044404797
5	0x3cb8ca40	0.022557378
6	0x3d144851	0.03620178
7	0xbd310500	-0.04321766
8	0xbcbf7f24	-0.023376055
9	0x3bf6e859	0.007535022
10	0xbb461674	-0.0030225785
11	0x3c85dc20	0.016340315
12	0x3c78305e	0.01514825
13	0x3b5592f8	0.003258882
14	0xbd5d0a38	-0.053964823
15	0x3d20d62b	0.039266746
16	0xbcf14eca	-0.029456515
17	0xbd5373b7	-0.051624026
18	0xbd192bec	-0.037395403
19	0xbbffc6be	-0.0078056743
20	0xbd3ae647	-0.045629766
21	0xbd2b0416	-0.041751944
22	0xbd2b5337	-0.041827407
23	0xbb14cc8d	-0.002270493
24	0xbb8eb2ba	-0.004354802
25	0xbcfee72d	-0.031116093
26	0xbd2673e7	-0.040637877
27	0x3c448be1	0.01199624
28	0x3a29ce0f	0.00064775435
29	0xbc540acc	-0.012942027
30	0x3c33175b	0.010930861
31	0x3c8d49e0	0.01724714
32	0xbc9cc8a4	-0.019138642
33	0xbd3e4a58	-0.04645762
34	0x3c691245	0.014225547
35	0xbd1e1f5c	-0.038604125
36	0x3d1c5868	0.03817025
37	0xbcf49b10	-0.029859096
38	0x3ceed64c	0.02915492
39	0x3c78a94d	0.015177083
40	0xbb53c432	-0.0032312986
41	0xbbcafe3a	-0.006194857
42	0xbce97eee	-0.028502908
43	0xbcd2f4f0	-0.02575156
44	0xbd226f1f	-0.039656755
45	0xbd0f11e9	-0.03492919
46	0x3ccf8f59	0.025336908
47	0x3c494042	0.012283387
48	0xbc5aad60	-0.013347
49	0x3cc53b2c	0.024076067
50	0xbd201007	-0.039077785
51	0x3cd0dd98	0.02549629
52	0xbbb95f4c	-0.005657112
53	0xbcf7dcc6	-0.03025664
54	0xbc1c4008	-0.009536751
55	0x3c41da19	0.011831784
56	0x3cac248d	0.021013523
57	0xbced6b23	-0.02898175
58	0x3a200295	0.00061039004
59	0xbaf3707f	-0.0018572955
60	0xbd0a8e37	-0.033827033
61	0xbd519a15	-0.051172335
62	0x3c89b299	0.016808795
63	0x3cc8508a	0.024452467
64	0xbd1e25ba	-0.038610198
65	0xbc0d278e	-0.008615388
66	0xbd523b62	-0.051326163
67	0x3d0bb164	0.03410472
68	0x3c89b554	0.016810097
69	0x3c983bc9	0.018583195
70	0xbc91e045	-0.017807135
71	0xbc54beca	-0.012984941
72	0x3c7f60ae	0.015587015
73	0x3cea31e1	0.028588237
74	0x3c5f2b7f	0.01362121
75	0xbd0a90d6	-0.033829533
76	0xbd46a252	-0.048494644
77	0xbd204104	-0.039124504
78	0xbaacd81e	-0.0013186967
79	0x3cab3f3e	0.02090418
80	0x3ac47f64	0.0014991579
81	0x3cbd3398	0.02309589
82	0xbb2e5298	-0.0026599523
83	0x3d1bca9a	0.038035013
84	0xbc4992c2	-0.012303056
85	0xbd1b5a9a	-0.0379282
86	0x3d1ea29d	0.0387293
87	0x3ca5b705	0.020228872
88	0x3bb7b294	0.005606005
89	0xbcc96081	-0.02458215
90	0x39465903	0.00018915911
91	0xbc9d7010	-0.019218475
92	0xbd2dd3f5	-0.042438466
93	0xbd353788	-0.04424241
94	0xbd37659f	-0.044774648
95	0x3cd99387	0.026559604
96	0x3d1b7f0b	0.037962954
97	0xbc8c83c3	-0.017152673
98	0xbcabf487	-0.020990623
99	0xbc309d72	-0.010779725
100	0xbd564de5	-0.05232038
101	0xbceaba20	-0.028653204
102	0xbc8357b3	-0.01603303
103	0xbd3e1ea2	-0.046415932
104	0xbc90fade	-0.017697748
105	0xbd5e4fdc	-0.05427538
106	0x3c213f02	0.009841682
107	0xbd167202	-0.03672982
108	0x3c4ffe63	0.012694928
109	0xbad3d1aa	-0.0016160507
110	0xbccddb02	-0.025128845
111	0xbc1bdabb	-0.009512599
112	0xbaba5cce	-0.0014218332
113	0x3d01659b	0.03159104
114	0x3d252f2b	0.040328186
115	0x3ccb3e77	0.024810059
116	0xbd034525	-0.032048363
117	0xbc0e663e	-0.008691369
118	0xbca3c7f0	-0.019992799
119	0xbcadc600	-0.021212578
120	0x3c4ca529	0.012490549
121	0xbd5fa60e	-0.05460172
122	0x3cf3168a	0.029673833
123	0x3cf05697	0.029338164
124	0xbc52155b	-0.012822474
125	0xbd061511	-0.032734934
126	0xbc3f1d11	-0.011664645
127	0x3cae22d8	0.02125685
128	0x3c484336	0.012223056
129	0xbcb6f144	-0.022331841
130	0x3d1d3b02	0.038386352
131	0xbc6ef789	-0.014585384
132	0xbcf56939	-0.0299574
133	0x3cc41393	0.023935115
134	0x3bb1fd6a	0.0054318206
135	0x3c9227fa	0.017841328
136	0xbcbb280d	-0.022846246
137	0xbcbade02	-0.02281094
138	0x3cc9b40a	0.024621982
139	0xbc4620d3	-0.012092787
140	0xbbd46350	-0.0064815655
141	0xba12d005	-0.00056004553
142	0x3b7d277f	0.0038628278
143	0xbc09ed5b	-0.008418406
144	0x3cba412e	0.022736158
145	0x3d1eef24	0.03880228
146	0xbd6f5c79	-0.0584378
147	0xbc99972b	-0.01874884
148	0x3a0f810d	0.0005474247
149	0xbba6f1b4	-0.005094731
150	0x3c5e7883	0.013578537
151	0xbcbeb2e2	-0.023278657
152	0x3c8bdb03	0.017072206
153	0xbd11df26	-0.0356132
154	0x3cede90c	0.02904179
155	0xbcdcaef9	-0.026938902
156	0x3c6e1589	0.014531502
157	0x3c514ab2	0.012774156
158	0x3bd72eff	0.0065668817
159	0x3ce17915	0.027523557
160	0xbce81ecc	-0.028334998
161	0x3c68027e	0.01416075
162	0xbc71f577	-0.014767996
163	0xbd09cf14	-0.03364475
164	0xbcdc6760	-0.026904762
165	0xbc76c2ab	-0.015061061
166	0x3d05ceeb	0.032668035
167	0xbbc642d1	-0.0060504456
168	0xbcfeac0e	-0.031087901
169	0x3d1e8635	0.03870221
170	0xbd5ac1e3	-0.05340756
171	0xbc3dcc2a	-0.011584321
172	0xbc9d41c2	-0.019196395
173	0xbcdda05f	-0.02705401
174	0x3cf13519	0.029444264
175	0xbb01a859	-0.001978418
176	0xbd5c0ef3	-0.053725194
177	0x39226e87	0.00015490699
178	0x3c060474	0.008179773
179	0x3c13cc48	0.009020872
180	0x3a716f2a	0.0009209985
181	0xbbf3ad38	-0.007436421
182	0xbc9d7cdf	-0.019224582
183	0x3c9c5b10	0.01908639
184	0xbc13d5a8	-0.009023108
185	0xbcdd2ff1	-0.0270004
186	0xbca3209f	-0.019913016
187	0xbbceb27b	-0.0063078976
188	0xba6ffeb4	-0.000915508
189	0x3ad1d265	0.0016008137
190	0x3b1f146d	0.002427365
191	0x3ccb0fee	0.02478787
192	0x3d205e97	0.039152708
193	0x3c75caec	0.015001994
194	0x3d0fab36	0.03507539
195	0xbd044faa	-0.032302536
196	0x3cda14ee	0.026621308
197	0x3cd7ef7a	0.026359309
198	0xbaa4cb11	-0.0012572726
199	0x3d1a6773	0.037696313
200	0x3c6ffecd	0.014648152
201	0xbc5c5c65	-0.013449763
202	0xbd203dd1	-0.039121453
203	0xbd19d87c	-0.03755997
204	0x3d200af7	0.039072957
205	0xbcd9c55e	-0.02658337
206	0x3d1aae7a	0.03776405
207	0x3cb03f23	0.021514481
208	0xbcfc8a44	-0.030827649
209	0xbc19ef06	-0.009395367
210	0xbd2d1947	-0.042260434
211	0x3cc5803e	0.024109002
212	0x3ca46ca3	0.020071333
213	0xbcee63b1	-0.029100271
214	0x3bff6e6b	0.0077951453
215	0x3c927b3e	0.017881032
216	0xbc958636	-0.018252473
217	0xbd5c7417	-0.05382165
218	0xbd2063a3	-0.03915752
219	0x3bdd174d	0.0067471624
220	0xbc057b1e	-0.008147029
221	0xbd140911	-0.03614146
222	0xbd5ce291	-0.053927008
223	0xbbd155b0	-0.0063883886
224	0x3b2f9149	0.0026789478
225	0x3c80c5e4	0.015719362
226	0xbc89aa98	-0.016804978
227	0xbcb57e55	-0.022154966
228	0x3ca33ce3	0.019926494
229	0x3d181ba2	0.037135728
230	0x3d13666c	0.03598635
231	0xbcf47aaf	-0.029843656
232	0xbd102006	-0.03518679
233	0x3cacd81a	0.021099139
234	0x3d091f89	0.03347734
235	0xbd28eb13	-0.04123981
236	0xbd46d854	-0.04854615
237	0x3c49c922	0.01231602
238	0xbd1abfa4	-0.03778042
239	0xbd3ce054	-0.046112373
240	0x3d0aa7d8	0.033851475
241	0xbd35a2e1	-0.044344787
242	0xbb476299	-0.003042376
243	0xbbdc6017	-0.006725322
244	0x3b975adb	0.004618985
245	0xbc651b01	-0.013983489
246	0xbd146e86	-0.036238216
247	0xbcf54648	-0.02994074
248	0xbd5fb3f7	-0.054614987
249	0x3bcbc7b0	0.006218873
250	0x3ca79c09	0.020460146
251	0x3bcfa26a	0.0063365
252	0xbd1ccccd	-0.03828125
253	0xbaeea74f	-0.0018207821
254	0xbcf9455c	-0.030428581
255	0xbc8b9173	-0.017037129

1.bias f4 [150]
0	0xbbf5ba93	-0.007499048
1	0xbcf49af6	-0.029859047
2	0xbc5e5a4b	-0.013571332
3	0xbc75daa0	-0.015005738
4	0x3cf35635	0.029704193
5	0xbd127ab5	-0.035761554
6	0x3cadf4a9	0.021234827
7	0x3c1cdb7d	0.009573814
8	0xbad78f8c	-0.0016445979
9	0xbcf30c12	-0.029668842
10	0x3cf8c77d	0.03036856
11	0xbd0b9726	-0.034079693
12	0xbd4b3e6c	-0.049620077
13	0x3d051020	0.03248608
14	0xbce6403e	-0.028106805
15	0x3ca91cae	0.020643558
16	0x3cb226f1	0.021747084
17	0x3beb2bfc	0.007176874
18	0xbd772c66	-0.060345076
19	0xbbef592c	-0.0073043313
20	0x3cfc7011	0.030815156
21	0x3cab57f5	0.020915965
22	0x3ca4c025	0.020111153
23	0x3bdb74f3	0.006697291
24	0x3d0e312c	0.034714863
25	0x3c9d895c	0.019230537
26	0x3cd34bee	0.025793042
27	0xbbda9696	-0.0066707833
28	0x3c0c661a	0.008569265
29	0xbc27d119	-0.010242724
30	0x3ccdd5f3	0.025126433
31	0x3af71167	0.0018849791
32	0xbd13e4bb	-0.036106806
33	0x3bab8b65	0.005235123
34	0x3b8db9e5	0.004325139
35	0x3cb2303e	0.02175152
36	0xbcc0147f	-0.023447273
37	0xbcf7dc7c	-0.030256502
38	0xbc9d78f8	-0.019222721
39	0xbc00a884	-0.007852677
40	0xbc24a147	-0.010048217
41	0xbbc838e9	-0.0061103
42	0xbc63a7b8	-0.013894968
43	0x3cef33d2	0.029199515
44	0x3cdfc5b0	0.027315944
45	0x3d18b564	0.037282363
46	0x3c183511	0.009289996
47	0x3c57d61c	0.013173606
48	0x3cc2dd0b	0.023787042
49	0xbbfc67fd	-0.007702826
50	0x3d02d57c	0.031941876
51	0xbc8617c6	-0.016368758
52	0xbc35ea49	-0.011103221
53	0xbceefcf2	-0.029173348
54	0x3d1a9067	0.03773537
55	0xbd5c590b	-0.053795855
56	0x3d13c021	0.0360719
57	0x3d3de4f7	0.046360936
58	0xbd59d629	-0.053182755
59	0xbd0c6cf1	-0.034283582
60	0xbd3cbd1a	-0.04607878
61	0x3c1e1053	0.009647447
62	0x3d0d784e	0.03453856
63	0xbd62ea28	-0.05539909
64	0xbc1dbd66	-0.009627676
65	0xbca2ebc2	-0.019887809
66	0x3cc1caff	0.023656366
67	0x3b76b1c9	0.003764259
68	0xbce467db	-0.027881553
69	0xbd138be7	-0.036022093
70	0xbd129440	-0.035785913
71	0x3d275b3c	0.040858492
72	0x3d32c24f	0.04364234
73	0x3cf463b9	0.029832708
74	0xbc196363	-0.009362075
75	0xbb3602f0	-0.0027772747
76	0xbc499cec	-0.0123054795
77	0x3c681da8	0.014167227
78	0xbcd3b0e0	-0.025841177
79	0x3cbc7709	0.02300598
80	0xbb9b1400	-0.004732609
81	0x3cf58884	0.029972322
82	0x3c9b5b08	0.018964306
83	0x3d1c215e	0.03811776
84	0x3ba35796	0.0049848063
85	0x3d10dfab	0.035369556
86	0xbd43a99a	-0.047769167
87	0xbc1f5c9e	-0.0097266715
88	0xbcaf75b1	-0.021418424
89	0x3c87ee63	0.016593164
90	0xbd36daa3	-0.044642102
91	0x3cd7be47	0.026335848
92	0xbd4019b4	-0.046899512
93	0xbd37eeaf	-0.04490536
94	0xbd41c17f	-0.047303673
95	0xbd17bf1f	-0.0370475
96	0xbc39a8ba	-0.011331731
97	0x3d3e79ec	0.046502993
98	0xbb8744bb	-0.0041280664
99	0xbc3f7c25	-0.011687313
100	0x3d01c069	0.031677637
101	0xbd200057	-0.039062824
102	0xbd103a35	-0.03521176
103	0x3be3a332	0.0069469446
104	0xbc3ccb66	-0.011523103
105	0x3c0032da	0.007824624
106	0xbc5d87d4	-0.0135211535
107	0xbcc1b384	-0.02364517
108	0x3d33a657	0.043859806
109	0xbca77de1	-0.020445766
110	0xbcd87f33	-0.02642784
111	0x3c8d26f9	0.017230498
112	0x3ca998e2	0.020702783
113	0x3c556914	0.013025541
114	0xbc47e472	-0.012200462
115	0xbcf02fac	-0.029319607
116	0xbc3fa4a4	-0.011696968
117	0xbd54b4cb	-0.05193023
118	0x3c22eba7	0.009943879
119	0xbbd62777	-0.0065354663
120	0xbcc610e1	-0.02417797
121	0x3b57abf3	0.0032908886
122	0x3cf46d97	0.029837413
123	0xbc3b1541	-0.011418642
124	0xbd012ca0	-0.0315367
125	0x3c438abc	0.011934932
126	0xb9312802	-0.0001689494
127	0x3c8517be	0.016246673
128	0x3bcd3b0f	0.006263144
129	0x3cd25e0d	0.025679613
130	0x3cdc801d	0.026916558
131	0x3d1a6a23	0.037698876
132	0x3c30c741	0.010789693
133	0xbcf78889	-0.030216472
134	0xbcf0c5af	-0.029391138
135	0x3c19e262	0.009392353
136	0x3d32f84f	0.043693837
137	0x3bfa0254	0.007629672
138	0xbcc03622	-0.023463313
139	0xba997258	-0.0011707051
140	0x3c87636d	0.016526902
141	0xbc7277e8	-0.014799096
142	0xbc35854f	-0.0110791465
143	0xbc1d8766	-0.009614801
144	0xbce24fae	-0.027625885
145	0xbd4e87ad	-0.05042236
146	0xbd2c613f	-0.04208493
147	0x3cd8e1cc	0.026474856
148	0xbc551540	-0.013005555
149	0x3cbdf353	0.023187315

3.weight f4 [50, 150]
0	0x3d955873	0.07292261
1	0x3d5435da	0.05180917
2	0x3d9292f8	0.07156938
3	0xba51153f	-0.0007975883
4	0x3d7799ca	0.0604494
5	0x3afb4388	0.0019169906
6	0x3c9d120f	0.01917365
7	0x3cf81a49	0.030285971
8	0x3ca04219	0.019562768
9	0xbcf0d148	-0.029396668
10	0x3d6db7bb	0.058036547
11	0x3b609529	0.0034268594
12	0xbcee5289	-0.02909209
13	0xbdbdb42a	-0.09262879
14	0xbe220278	-0.15821254
15	0x3daedea7	0.08538561
16	0x3da16172	0.07879914
17	0x3cc4c53c	0.02401983
18	0xbda8da92	-0.08244814
19	0x3d3a842b	0.0455362
20	0xbad9e96b	-0.001662535
21	0xbd43ef63	-0.04783572
22	0x3d17879e	0.03699457
23	0x3d009904	0.031395927
24	0x3d885d05	0.06658367
25	0x3d17ce91	0.03706223
26	0x3d41cda7	0.047315266
27	0x3d4dd619	0.050253008
28	0x380c5f60	3.3467426e-05
29	0x3d7a3b03	0.061091434
30	0xbd927b89	-0.07152469
31	0xbd12f574	-0.035878614
32	0x3d403f9a	0.046935655
33	0x3daa03ba	0.08301492
34	0x3b86a77e	0.004109322
35	0xbd520ee5	-0.051283736
36	0x3daa6906	0.08320813
37	0x3d384ecc	0.04499702
38	0xbd4cbe73	-0.049986314
39	0xbbf25c68	-0.0073962696
40	0xbd5eba83	-0.05437709
41	0xbd69dcef	-0.057095464
42	0xbd4e7ac0	-0.050410032
43	0xbbb893e6	-0.0056328652
44	0xbd33ea0e	-0.043924384
45	0x3d815050	0.063141465
46	0xbdb0b00f	-0.086273305
47	0xbd2655e2	-0.040609248
48	0x3da3c388	0.07996279
49	0xbd299018	-0.041397184
50	0x3d4878ff	0.048943516
51	0x3d3e10be	0.046402685
52	0x3c5bd4c7	0.013417429
53	0x3d4ab95a	0.04949317
54	0x3d1e679a	0.03867302
55	0xbb68b193	-0.0035506233
56	0xbd905132	-0.07046737
57	0x3e841f81	0.25805286
58	0x3cd3b4ed	0.025843108
59	0x3cfee689	0.031115787
60	0xbcc8c2d5	-0.024506966
61	0x3cf824c9	0.030290978
62	0x3ceb9413	0.02875713
63	0xb97606b9	-0.00023462893
64	0xbca1be9e	-0.019744214
65	0x3d6d99f1	0.058008138
66	0xbca3660d	-0.019946123
67	0xbc668642	-0.0140700955
68	0xbdad5d54	-0.084650666
69	0xbcf16c55	-0.029470602
70	0xbd76ba96	-0.060236536
71	0xbd7f0cec	-0.062268183
72	0x3d179645	0.037008543
73	0x3d57210f	0.05252176
74	0x3d75b4a3	0.05998672
75	0x3ceb78f4	0.028744198
76	0x3db0e857	0.08638065
77	0x3d3936d0	0.04521829
78	0x3c4e360b	0.012586127
79	0xbc849803	-0.016185766
80	0xbbdc4d63	-0.0067230924
81	0x3cfd8876	0.030948859
82	0xbbdcb9e2	-0.006736026
83	0xbceb8bda	-0.02875321
84	0xbd3791fd	-0.04481696
85	0x3d8e0230	0.06934011
86	0xbdbcffe3	-0.09228494
87	0x3d89bf82	0.0672598
88	0x3c9e6ce3	0.01933903
89	0x3d82e962	0.063921705
90	0x3b95d375	0.004572327
91	0x3db4ac6b	0.088219486
92	0xbcbd9569	-0.023142533
93	0x3da7fd0a	0.0820256
94	0x3d7209d8	0.05909142
95	0x3db9e4c5	0.090768375
96	0xbd873a6c	-0.0660294
97	0x3ba15bd2	0.004924276
98	0xbd3c74cf	-0.046009835
99	0xbbe8ea5e	-0.007108017
100	0x3e4df803	0.2011414
101	0x3bc96712	0.00614632
102	0xbd96190d	-0.07328997
103	0x3cca77f0	0.024715394
104	0xbd8f1f1e	-0.06988357
105	0xbd3a01ca	-0.045411862
106	0x3d960534	0.07325211
107	0xbc3e4066	-0.0116120335
108	0xbcee5db3	-0.029097414
109	0xbd573971	-0.052545015
110	0x3d9ea633	0.07746544
111	0xbdb2596b	-0.087084614
112	0x3d9f3eed	0.07775674
113	0x3c403afd	0.011732814
114	0xbbe19838	-0.006884601
115	0x3dc7f9c2	0.097644344
116	0x3d148f26	0.03626933
117	0xbd3e13f3	-0.046405744
118	0x3d7c3bc9	0.061580453
119	0x3d5b3622	0.053518422
120	0x3cfa89e5	0.030583331
121	0x3db44041	0.08801318
122	0x3dc491b2	0.09598102
123	0x3d8b18fb	0.06791874
124	0xbd2bcd50	-0.041943848
125	0xbd9730fd	-0.07382391
126	0x3da3b02f	0.07992589
127	0xbd8534a9	-0.06504185
128	0x3d8cabe5	0.06868724
129	0xbd2b3a9c	-0.04180394
130	0xbd5b4750	-0.053534806
131	0x3daa15a3	0.08304908
132	0x3acca849	0.0015614118
133	0x3d3e41d2	0.04644949
134	0x3c2ed94f	0.010671928
135	0x3c623b4f	0.013808086
136	0x3d967fce	0.073485956
137	0x3bbe877f	0.0058144922
138	0x3d497a7e	0.049189083
139	0xbd4475d3	-0.04796393
140	0xbd0c4c6f	-0.03425258
141	0xbd81459a	-0.063121036
142	0x3d31eb36	0.043437205
143	0xbdb54043	-0.088501476
144	0xbca33f18	-0.019927546
145	0x3db38b02	0.08766748
146	0xbd560704	-0.052252784
147	0xbd3703ba	-0.04468129
148	0x3da3398c	0.079699606
149	0x3d5fe5f9	0.05466268
150	0xbcb71da2	-0.022352997
151	0x3c9e1ebe	0.019301768
152	0xbd84faf2	-0.064931765
153	0xbc2755d3	-0.010213333
154	0x3c9f494c	0.01944413
155	0x3d73d3a1	0.059527997
156	0x3d10278e	0.035193972
157	0x3d5b9fba	0.053619124
158	0x3d2a12e8	0.041521937
159	0xbcd51c76	-0.026014548
160	0xbc6abfb9	-0.014327937
161	0x3c45058c	0.012025248
162	0x3bf44c4c	0.0074553844
163	0x3d42dbe9	0.047573004
164	0x3cc13ed3	0.023589527
165	0xbd261837	-0.040550437
166	0x3c8e464a	0.0173675
167	0x3c7d5fc4	0.015464727
168	0x3cfd6fc0	0.030937076
169	0xbc727a50	-0.014799669
170	0xbc913ea4	-0.017730065
171	0xbd9bc187	-0.07605272
172	0x3d79f248	0.061022073
173	0x3d1c82cd	0.03821068
174	0x3d4bd960	0.04976785
175	0xbd75c8c4	-0.06000592
176	0x3d6b1d99	0.057401273
177	0xbd30a0dc	-0.043122157
178	0xbb3c25a8	-0.0028708968
179	0x3ce4edc6	0.02794541
180	0x3d392d94	0.045209482
181	0xbccf8de3	-0.025336212
182	0x3d79abbd	0.060954798
183	0x3d3c121a	0.0459157
184	0xbda8077e	-0.08204554
185	0xbda035ee	-0.07822786
186	0xbd9920b4	-0.07476941
187	0x3c62e4d8	0.013848506
188	0xbc225e5d	-0.009910193
189	0xbb9b2ebd	-0.0047357962
190	0xbc8b5332	-0.017007444
191	0xbc8cc344	-0.017182954
192	0x3d308f77	0.04310557
193	0x3d38457a	0.044988133
194	0xbd39606e	-0.04525798
195	0xbc827ce9	-0.015928702
196	0x3d6ccee3	0.05781449
197	0xbd129409	-0.03578571
198	0x3d278a95	0.040903646
199	0xbd9adbb4	-0.07561436
200	0xbd90b5fd	-0.070659615
201	0xbd27038e	-0.040774874
202	0xbc84a635	-0.016192535
203	0xbc4d3cd3	-0.012526709
204	0x3d6d0a89	0.057871375
205	0xbcda3d56	-0.026640575
206	0xbc0a10d3	-0.008426863
207	0xbd8b541b	-0.06803151
208	0x3cef90d9	0.029243873
209	0x3d02eb27	0.03196254
210	0xbda29d79	-0.07940192
211	0x3d2f6fd1	0.042831246
212	0xbd7b902c	-0.06141679
213	0xbcde36c8	-0.027125731
214	0xbd9f3412	-0.077736035
215	0x3d906e8b	0.070523344
216	0xbd444854	-0.04792054
217	0xbc1f486e	-0.009721858
218	0x3b8d2d45	0.004308375
219	0x3c9f4cc0	0.019445777
220	0x3c8466c2	0.01616228
221	0xbd21774e	-0.03942042
222	0x3d5c61f6	0.05380436
223	0x3cdc96b8	0.026927337
224	0x3d80e5e6	0.0629385
225	0xbd4168ff	-0.047219273
226	0x3cf0030d	0.02929833
227	0x3cd3a8f2	0.025837395
228	0x3d1301a4	0.035890236
229	0x3d84391b	0.064562045
230	0xbd88ab95	-0.06673352
231	0x3d985ad4	0.07439199
232	0x3d9d4686	0.07679467
233	0xbd025663	-0.031820666
234	0xbd04eb03	-0.032450687
235	0x3d8ce0d9	0.06878824
236	0xbd5f28ac	-0.054482147
237	0x3c276956	0.010217985
238	0xbd2c79c3	-0.04210831
239	0xbd4a51ab	-0.04939429
240	0x3d036e06	0.03208735
241	0xbd0523de	-0.03250491
242	0x3d84ef5e	0.06490968
243	0x3c26e7a1	0.010187061
244	0x3d8b183e	0.06791733
245	0x3c968295	0.018372813
246	0x3d1e421e	0.038637273
247	0x3d0ca191	0.03433377
248	0xbd769c28	-0.060207516
249	0xbc0f2133	-0.008735943
250	0xbd435fd0	-0.047698796
251	0xba9fe4d8	-0.0012198938
252	0xbd81110c	-0.063020796
253	0xbd311356	-0.04323133
254	0xbbe4737c	-0.0069717746
255	0xbd1f82a1	-0.038942937

3.bias f4 [50]
0	0x3cfb7aa4	0.030698128
1	0x3b7165d6	0.003683438
2	0xbb0cce49	-0.002148526
3	0xbc665312	-0.014057891
4	0x3d5c75ee	0.053823404
5	0x3bb54332	0.005531692
6	0xbd3772ab	-0.04478709
7	0x3bc7a0b8	0.006092157
8	0xbbf95010	-0.007608421
9	0xbd204ea5	-0.0391375
10	0x3c4eca7b	0.012621517
11	0x3d23a5d3	0.039953064
12	0x3db0ef9c	0.08639452
13	0xbd32fe38	-0.043699473
14	0x3d49c9c8	0.0492647
15	0x3d138050	0.03601104
16	0xbd4ae403	-0.049533855
17	0xbd407414	-0.0469857
18	0xbdb8cfe0	-0.09024024
19	0xbcf02579	-0.029314743
20	0xbbb53a6d	-0.0055306465
21	0x3d435ec8	0.047697812
22	0x3d314269	0.043276224
23	0x3d03c4f6	0.03217026
24	0x3d3ad4a3	0.045612942
25	0x3b13d095	0.0022554745
26	0x3db73a0f	0.08946621
27	0x3cf18495	0.029482165
28	0x3cc6143e	0.024179574
29	0xbd743d50	-0.059628785
30	0xbd07177a	-0.032981373
31	0xbb828d7f	-0.003984153
32	0xbd52a8be	-0.051430456
33	0x3d5b1ebe	0.053496115
34	0xbdb21400	-0.08695221
35	0x3d44725f	0.047960635
36	0xbc904b45	-0.017614016
37	0x3d6704ec	0.05640118
38	0xbd546043	-0.051849615
39	0xbd03d3c3	-0.032184374
40	0x3ba6cae5	0.005090105
41	0x3d1ca3a3	0.038241994
42	0xbd061972	-0.03273911
43	0x3d89e984	0.06733993
44	0x3d76f009	0.06028751
45	0x3d349d78	0.044095486
46	0xbc0b21ac	-0.008491915
47	0xbd6d9fd4	-0.058013752
48	0xbc473652	-0.012158947
49	0xbce9cf07	-0.028541101

5.weight f4 [10, 50]
0	0x3dca9762	0.09892155
1	0xbbbe821a	-0.005813849
2	0x3d8305c7	0.06397586
3	0xbe3cf058	-0.18451059
4	0xbf26e267	-0.6518921
5	0xbb80c39b	-0.003929568
6	0xbcd0cadb	-0.025487354
7	0xbfc0d3a5	-1.5064589
8	0xbcade244	-0.021226056
9	0x3e03a9c5	0.1285773
10	0x3df80558	0.12110394
11	0x3e08673e	0.13320634
12	0x3c3bbd5b	0.01145872
13	0x3dcff446	0.10154013
14	0x3debf48e	0.115212545
15	0xbdedb869	-0.11607439
16	0xbf32a6dd	-0.69785863
17	0xbc07f8a3	-0.008299026
18	0x3dcd93b7	0.1003794
19	0xbc9ec508	-0.019381061
20	0xbd2c9ff8	-0.042144746
21	0xbcebbfec	-0.028778039
22	0x3deb2efa	0.114835694
23	0x3df0194a	0.117235735
24	0x3da63b68	0.081167996
25	0xbc997588	-0.018732801
26	0xbde8cafe	-0.11366843
27	0xbca61ff8	-0.020278916
28	0xbec18656	-0.37797803
29	0xbdb53957	-0.08848827
30	0xbcad192e	-0.02113017
31	0x3e93326b	0.28749403
32	0x3dae540a	0.08512123
33	0x3d1112b1	0.035418216
34	0xbd8b6823	-0.06806972
35	0xbdc6a616	-0.09699647
36	0x3cc2e10c	0.023788951
37	0xbd5af6b0	-0.053457916
38	0x3dd6625a	0.10467978
39	0x3d8102f1	0.06299389
40	0x3e12d7ff	0.14340208
41	0x3de4f7d3	0.11180081
42	0xbe4699e2	-0.19394639
43	0x3db45481	0.0880518
44	0xbdcbd9fb	-0.09953686
45	0xbd926bfd	-0.071495034
46	0xbe32cc00	-0.17460632
47	0x3da6fe91	0.081540234
48	0xbd64882c	-0.055793926
49	0xbf2b8b76	-0.67009676
50	0xb8418975	-4.6142803e-05
51	0x3dbd958a	0.09257038
52	0xbda7d96e	-0.08195768
53	0x3d1ebe22	0.038755544
54	0x3b6a43ce	0.003574598
55	0xbd7a2ac8	-0.061075956
56	0xbdb5211c	-0.08844206
57	0x3e9df680	0.30852127
58	0x3d91ca57	0.071186714
59	0x3db05fd2	0.08612026
60	0x3dc70745	0.097181834
61	0x3d3eed11	0.046612803
62	0xbc4d072f	-0.01251392
63	0x3ded416a	0.11584742
64	0x3d4fabcd	0.05070095
65	0xbe1f6bca	-0.15568462
66	0x3f3697bd	0.71325284
67	0xbd99a846	-0.07502799
68	0x3df68326	0.12036733
69	0x3e0bd6c5	0.13656147
70	0x3c1e1e8f	0.00965084
71	0x3cf0be7f	0.02938771
72	0x3c071443	0.008244577
73	0xbd247361	-0.040149096
74	0x3dc5204d	0.096253015
75	0xbdbaa6e8	-0.09113866
76	0xbd871d18	-0.06597346
77	0x3da2115e	0.07913469
78	0x3e0ec387	0.13941775
79	0x3d77b38b	0.06047396
80	0xbe0183f7	-0.12647997
81	0xbe20a4c7	-0.15687858
82	0x3de795f3	0.113078974
83	0x3e0eb771	0.13937165
84	0xbd779e82	-0.0604539
85	0xbe184bfc	-0.14872736
86	0x3df11df5	0.11773292
87	0x3dc03bc4	0.093863994
88	0xbc227552	-0.009915667
89	0x3bfa3249	0.007635389
90	0x3d99a0de	0.07501386
91	0x3dd1c6a2	0.10242964
92	0xbd8a1e8e	-0.06744109
93	0x3dbc776e	0.09202467
94	0xbb052e58	-0.0020321812
95	0x3cfdd009	0.030982988
96	0xbceffb40	-0.02929461
97	0xbd2ab900	-0.041680336
98	0x3c09a6df	0.008401602
99	0x3ea7fb7f	0.32809064
100	0x3e175cf8	0.14781559
101	0xbb994439	-0.004677322
102	0xbc68f16e	-0.014217718
103	0x3c7e2459	0.015511596
104	0x3de0e9d8	0.10982102
105	0x3deb0b4e	0.114767656
106	0xbc002775	-0.007821907
107	0x3e278855	0.163606
108	0x3cf4f5fe	0.029902454
109	0x3dcfe860	0.10151744
110	0xbd93aa62	-0.07210232
111	0x3d6fdfd7	0.05856308
112	0x3e2ac767	0.16677628
113	0x3dea7503	0.114480995
114	0xbc73eca4	-0.0148879625
115	0x388a0c11	6.5826e-05
116	0x3efcebcc	0.4939865
117	0xbd30d6de	-0.043173663
118	0xbcaa1afc	-0.02076482
119	0xbd987c71	-0.0744561
120	0x3d92fc06	0.07176976
121	0x3d25c1e3	0.040468108
122	0x3bcfb82a	0.0063390927
123	0xbe051df7	-0.12999712
124	0x3e09a379	0.13441266
125	0x3c1e7876	0.009672275
126	0x3e1379c1	0.14401914
127	0xbcd46c58	-0.025930569
128	0x3e29ee10	0.1659472
129	0x3d1323d6	0.035922848
130	0x3d4b86bc	0.04968904
131	0xbdcdc54f	-0.10047399
132	0x3ca97677	0.020686371
133	0xbdd026fe	-0.10163687
134	0x3d1f0628	0.03882423
135	0x3da48ef1	0.080350764
136	0x3e0b35c3	0.13594727
137	0x3cb1ec92	0.02171925
138	0x3ce89485	0.028391132
139	0xbde19502	-0.11014749
140	0xbd830c38	-0.06398815
141	0x3e0c568c	0.1370489
142	0xbde09711	-0.10966314
143	0xbd8746d7	-0.066053085
144	0x3dbec899	0.09315605
145	0xbd39f979	-0.04540393
146	0xbdac07d3	-0.0839993
147	0xbb2a5187	-0.0025988535
148	0x3c546441	0.0129633555
149	0x3e73f5a0	0.23824167
150	0x3dae437d	0.08508966
151	0x3dd87fc9	0.10571248
152	0xba9ae400	-0.0011817217
153	0x3d9018eb	0.07036003
154	0xbe01f4fe	-0.12691113
155	0xbdf3666f	-0.11884772
156	0xbdbd3244	-0.09238103
157	0xbe777a45	-0.24167736
158	0xbb2f50ef	-0.002675112
159	0xbc86d582	-0.01645923
160	0xbcc21a51	-0.02369419
161	0xbd9a6ed7	-0.07540672
162	0xbdb7e64e	-0.08979474
163	0x3dad261c	0.084545344
164	0xbde5baad	-0.11217246
165	0xbdcfcd2f	-0.101465575
166	0x3de87ecf	0.11352312
167	0xbdb138b1	-0.08653391
168	0x3d12478c	0.035712764
169	0x3d662506	0.056187652
170	0xbe1a44b3	-0.15065269
171	0x3dd3bd8e	0.10338889
172	0x3df9ff6d	0.12206922
173	0xbdee41c7	-0.1163364
174	0xbd9d5b27	-0.076834016
175	0xbd939380	-0.07205868
176	0x3df94600	0.121715546
177	0x3db84ada	0.08998652
178	0xbd786791	-0.060645644
179	0x3df60413	0.12012496
180	0xbba428fe	-0.0050097695
181	0x3dc44336	0.09583132
182	0x3d6f7d98	0.058469385
183	0xbc4ee5b2	-0.012628006
184	0xbd7fa32d	-0.062411476
185	0xbde30878	-0.110856
186	0x3d2e1798	0.04250297
187	0xbde8f7e0	-0.113754034
188	0xbdd0fa83	-0.10204031
189	0x3d8d6510	0.06904042
190	0xbdc2ff26	-0.09521322
191	0xbd45f024	-0.04832472
192	0xbccbd234	-0.024880506
193	0xbdc02cad	-0.09383521
194	0x3dd98d44	0.106226474
195	0xbe17b21a	-0.14814034
196	0xbe081a28	-0.13291228
197	0xbd7ef8bc	-0.06224893
198	0x3dc5ae4b	0.09652384
199	0x3dc74434	0.097298056
200	0xbcbcc440	-0.023042798
201	0xbde73256	-0.11288898
202	0x3e07bf7d	0.1325664
203	0x3d4bbc2f	0.049740013
204	0x3da9cf6b	0.08291515
205	0x3c836290	0.01603821
206	0x3e08a9e2	0.13346055
207	0xbe71ca2f	-0.23612283
208	0xbdf2a154	-0.11847177
209	0xbd1c3f56	-0.03814634
210	0xbaf8895f	-0.0018961838
211	0xbd37a25f	-0.044832584
212	0x3d4ebf0d	0.05047517
213	0x3dd2b4d8	0.102883995
214	0xbd11c9b3	-0.035592746
215	0x3d9f48f0	0.077775836
216	0xbee519e7	-0.44746324
217	0xbce7161d	-0.028208787
218	0x3d3d750c	0.046254203
219	0xbcbf22a8	-0.023331955
220	0xbda2e8a8	-0.07954532
221	0x3e049e34	0.12950975
222	0x3c897806	0.016780864
223	0xbdf6d801	-0.12052918
224	0x3bff66d4	0.0077942405
225	0xbc39e46a	-0.011345962
226	0x3c9ebb6c	0.01937648
227	0x3ddba6e5	0.10725192
228	0x3b48b43e	0.003062501
229	0xbe028a4c	-0.12748069
230	0xbdfe8b18	-0.12428874
231	0x3c48b321	0.012249739
232	0xbdf339d0	-0.11876261
233	0x3dc32140	0.09527826
234	0xbd9ba316	-0.075994655
235	0xbe10a47d	-0.14125247
236	0x3c41e85a	0.011835182
237	0xbc7528af	-0.014963313
238	0x3e0c5a80	0.13706398
239	0x3e06eeeb	0.13177077
240	0xbd7790c6	-0.0604408
241	0x3d9a458e	0.07532798
242	0x3d468cc1	0.048474077
243	0xbcd8614f	-0.026413588
244	0xbd3f5240	-0.0467093
245	0x3cf237cc	0.029567622
246	0x3dd9dbd7	0.10637634
247	0xbc777de8	-0.015105702
248	0x3dbf82bd	0.09351108
249	0xbdbf2644	-0.093334705
250	0xbe012639	-0.12612237
251	0xbdbf0eaf	-0.093289725
252	0xbd8a020f	-0.06738674
253	0x3cb03190	0.021508008
254	0xbd2bac7e	-0.04191255
255	0x3ddafafc	0.10692403

5.bias f4 [10]
0	0xbc3c197b	-0.011480684
1	0xbd2c5315	-0.04207142
2	0xbcad4618	-0.021151587
3	0x3d610321	0.054934625
4	0xbcd8b043	-0.026451236
5	0x3cbae71c	0.02281528
6	0x3d54713f	0.051865812
7	0x3e1cebba	0.15324298
8	0xbd79cabc	-0.06098436
9	0x3e20b5aa	0.156943

7.weight f4 [1, 10]
0	0xbf175e9a	-0.59128726
1	0x3d5051d7	0.0508593
2	0x3dfc8c90	0.12331498
3	0xbe9bd8ff	-0.30438992
4	0xbe986119	-0.2976158
5	0xbe313077	-0.17303644
6	0x3e0b2f60	0.13592291
7	0x3e5b949c	0.21443409
8	0x3e459915	0.19296677
9	0x3e9f7c01	0.31149295
