model11.pth (torch, 253487 bytes, 7 tensors)

1.weight f4 [150, 363]
0.0064662206 0.040089745 -0.028945457 0.00038435598 -0.036910143 0.029154254 -0.01761069 -0.026777253
0.029943533 -0.0021973234 -0.027584849 0.008696199 -0.005694809 0.026909808 -0.0025655278 -0.040478174
-0.053201385 -0.009658523 -0.043332204 0.005831206 -0.048311543 0.03442932 -0.024254296 0.039407045
0.0030213164 0.040210616 -0.028244132 -0.05317147 -0.012642489 0.031316824 -0.010969061 -0.05445449
-0.027244907 0.037439026 -0.019325202 0.027778458 -0.015671652 -0.04038125 -0.0316367 -0.018193256
-0.026629647 0.04662134 -0.004374306 -0.009196877 0.015794877 -0.02456684 -0.049102545 -0.05076511
-0.039139867 -0.011916924 0.03058484 -0.010578137 0.020525623 0.034513865 0.0402383 0.022630556
0.039250243 -0.050099038 -0.0027071598 0.024845637 -0.03145127 0.0418826 -0.00026645494 -0.010652573
0.0078709535 0.016583584 0.037718527 -0.032676317 0.040592287 -0.0043773 0.0036764464 -0.007207478
-0.041616555 0.017686594 -0.03584754 0.0108258715 0.043775115 -0.023228507 -0.0420984 -0.051364902
0.040499132 -0.0318728 0.035835348 -0.034090318 0.03924587 -0.019990219 -0.027376847 -0.048048053
-0.019594185 -0.010157985 0.03377167 -0.026586955 -0.05143194 -0.026101522 -0.057898797 -0.05423204
0.021557214 0.017153643 -0.04029754 -0.008433156 0.044997066 -0.0102360565 -0.014820376 -0.019366752
0.01461788 -0.046509504 0.009149834 -0.009509391 0.0028714028 -0.054344863 -0.020817628 -0.0046514533
0.039072126 0.006106998 0.04030387 -0.031474195 -0.040433623 -0.009813078 0.004480371 0.036507405
0.03221277 0.081286386 -0.044197828 0.02732981 0.0024756896 -0.048987743 0.0011271538 -0.07564323
-0.09105911 0.08123282 -0.062384255 -0.16267897 -0.07806423 0.107018895 -0.02841246 0.03911069
-0.056846075 -0.010869977 0.02556116 -0.02847456 -0.035620615 0.05454981 -0.03692003 -0.09763992
0.046152107 -0.0076972204 -0.016553106 -0.00043488844 0.0076996214 -0.04903525 0.045148417 -0.038174428
-0.025482235 0.029002706 -0.08743529 0.02145848 0.015806727 -0.0066800225 -0.0015524203 0.030926803
0.018962165 -0.0042903665 -0.002360183 0.03261828 -0.0032448196 -0.012279593 0.017937817 -0.01531363
0.046099525 -0.024131529 0.027720775 -0.040466547 -0.017954545 0.043961752 -0.013499197 -0.045491062
-0.016323445 -0.010867751 -0.011645163 -0.0016051378 0.019974133 -0.054076668 0.006649593 0.002283503
0.035412215 0.003187691 -0.039366506 -0.03465515 0.011342672 0.030478332 -0.038394745 -0.006590268
-0.02441091 0.03822041 -0.028441269 0.02679615 -0.03870312 0.033512156 -0.013316657 0.025575146
0.044447076 -0.011318527 0.018464077 0.030150399 0.024116939 -0.023025198 -0.0065058023 -0.006622303
-0.0031149639 0.0009291492 0.0380186 -0.054012667 -0.044665758 -0.00068394974 -0.0334025 -0.022430517
0.04187559 0.046228524 0.01643675 0.021332424 -0.0048154416 -0.0047318926 0.019318847 -0.025719937
0.019983368 -0.035406068 -0.0539737 0.029710375 0.035265904 0.045434795 0.033390876 0.058627408
0.016187336 -0.042221367 -0.05658351 0.03791753 0.0287481 0.05370488 -0.011053519 0.05392039
-0.010257566 -0.04178616 0.0016083319 -0.013335987 -0.00507455 -0.05460311 0.01332271 0.04227554
0.031839944 0.011580939 0.011787722 0.016167207 -0.025642289 -0.08754914 -0.09638941 0.036459077
00000000: 97e2 d33b 2535 243d 061f edbc 6383 c939
00000010: 172f 17bd e7d4 ee3c 4b44 90bc f85b dbbc
00000020: 244c f53c f800 10bb 9ff9 e1bc 817a 0e3c
00000030: 859b babb f571 dc3c 6a22 28bb 71cc 25bd
00000040: b2e9 59bd c83e 1ebc 1c7d 31bd b413 bf3b
00000050: 53e2 45bd c205 0d3d f2b0 c6bc 4869 213d
00000060: 4701 463b e3b3 243d 3d60 e7bc 54ca 59bd
00000070: 7122 4fbc 1246 003d 94b7 33bc ac0b 5fbd
00000080: b630 dfbc aa59 193d e34f 9ebc a68f e33c
00000090: d661 80bc cf66 25bd 7c95 01bd 060a 95bc
000000a0: 6b26 dabc 05f6 3e3d 5756 8fbb 7fae 16bc
000000b0: 4264 813c 6640 c9bc c01f 49bd 13ef 4fbd
000000c0: 2051 20bd 343f 43bc 0f8d fa3c ec4f 2dbc
000000d0: 5a25 a83c 695e 0d3d ead0 243d b763 b93c
000000e0: ddc4 203d a634 4dbd 9b6a 31bb 1489 cb3c
000000f0: 0cd3 00bd 178d 2b3d fab2 8bb9 2188 2ebc
00000100: 2cf5 003c 4cda 873c be7e 1a3d 9ad7 05bd
00000110: 1944 263d 746f 8fbb 89f0 703b b52c ecbb
00000120: 1f76 2abd 7ae3 903c dfd4 12bd ff5e 313c
00000130: 894d 333d b649 bebc 5f6f 2cbd 0164 52bd
00000140: 6be2 253d 0e8d 02bd 16c8 123d 4aa2 0bbd
00000150: 47c0 203d 87c2 a3bc 6945 e0bc 09ce 44bd
00000160: fc83 a0bc ad6d 26bc 2a54 0a3d e3cc d9bc
00000170: 4caa 52bd dcd2 d5bc 4a27 6dbd 6a22 5ebd
00000180: c198 b03c cc85 8c3c 090f 25bd 382b 0abc
00000190: d84e 383d 22b5 27bc 2ad1 72bc 06a7 9ebc
000001a0: d57f 6f3c c080 3ebd 2fe9 153c 47cd 1bbc
000001b0: 252e 3c3b b898 5ebd bb89 aabc 386b 98bb
000001c0: 180a 203d 361d c83b ac15 253d 16eb 00bd
000001d0: ba9d 25bd 08c7 20bc 13d0 923b ca88 153d
000001e0: 8af1 033d 7a79 a63d c808 35bd c4e2 df3c
000001f0: 2e3f 223b 5fa7 48bd 01bd 933a d6ea 9abd
00000200: 337d babd 655d a63d a286 7fbd 5195 26be
00000210: 24e0 9fbd b92c db3d 3fc1 e8bc 8832 203d
00000220: 6ed7 68bd fd17 32bc a365 d13c 7b43 e9bc
00000230: ece6 11bd 9f6f 5f3d 7539 17bd 70f7 c7bd
00000240: fe09 3d3d f738 fcbb 619a 87bc bd01 e4b9
00000250: 1b4d fc3b 30d9 48bd 8ced 383d ca5c 1cbd
00000260: 1fc0 d0bc 1597 ed3c 4611 b3bd b2c9 af3c
00000270: 1c7d 813c 17e4 dabb 957a cbba 355a fd3c
00000280: 8b56 9b3c 3496 8cbb 4dad 1abb bf9a 053d
00000290: 0aa7 54bb 5930 49bc 54f2 923c 05e6 7abc
000002a0: dbd2 3c3d 7caf c5bc ae16 e33c 40c0 25bd
000002b0: 6915 93bc 3d11 343d bc2b 5dbc d654 3abd
000002c0: bfb8 85bc a70e 32bc 5bcb 3ebc 7d63 d2ba
000002d0: cba0 a33c 7f7f 5dbd d4e4 d93b d3a6 153b
000002e0: 660c 113d 95e8 503b c63e 21bd 8ff2 0dbd
000002f0: 9dd6 393c b2ad f93c cf43 1dbd 2df3 d7bb
00000300: 64f9 c7bc 018d 1c3d aafd e8bc 9983 db3c
00000310: 2a87 1ebd 0b44 093d 1c2e 5abc f882 d13c
00000320: 230e 363d 5871 39bc fa41 973c f8fd f63c
00000330: e390 c53c 579f bcbc a02e d5bb e7ff d8bb
00000340: 6c24 4cbb 2692 733a 64b9 1b3d 633c 5dbd
00000350: 71f3 36bd 174b 33ba 0fd1 08bd 34c0 b7bc
00000360: bd85 2b3d 1f5a 3d3d 5da6 863c 56c1 ae3c
00000370: daca 9dbb fe0d 9bbb 8f42 9e3c 9eb2 d2bc
00000380: 29b4 a33c f405 11bd 8713 5dbd 2c63 f33c
00000390: fb72 103d d619 3a3d dfc4 083d 4b23 703d
000003a0: 4e9b 843c 50f0 2cbd 1cc4 67bd 694f 1b3d
000003b0: 2381 eb3c a6f9 5b3d d219 35bc a0db 5c3d
000003c0: 5a0f 28bc f727 2bbd aace d23a 2f7f 5abc
000003d0: 6948 a6bb 83a7 5fbd 7f47 5a3c 1e29 2d3d
000003e0: 9a6a 023d fbbd 3d3c 4a21 413c 1771 843c
000003f0: c70f d2bc f74c b3bd d067 c5bd 1d56 153d

1.bias f4 [150]
0.007099546 -0.006266019 -0.019354241 0.015900543 -0.008409869 0.0020009757 0.037639488 -0.038185395
0.04246148 -0.016178885 0.004109075 0.02011516 -0.011310573 0.006115635 0.012762955 0.010479084
-0.025570283 -0.047813427 0.03412305 0.046627138 -0.016867008 -0.02214247 -0.050600477 0.031309802
-0.009996455 -0.020085212 0.0030750383 -0.024155386 0.03689999 -0.0010797243 -0.058550514 0.012070564
0.065555215 -0.043941125 0.02894171 0.014559278 0.039298866 0.0029778841 -0.047084924 0.00997404
0.018100608 -0.02253558 0.04805099 -0.039528903 -0.026584154 0.009424821 0.010889213 -0.056244273
0.040282544 0.050621856 0.03445321 -0.051419564 0.0546817 0.024322262 0.07267987 0.02068451
0.018203814 -0.0018541227 0.0009956354 0.02052766 0.0022114667 0.038382653 0.043697998 0.032139175
-0.015138683 -0.014308464 -0.05753975 0.02065154 -0.02860871 -0.03805482 -0.010435674 -0.025050625
0.016018158 -0.008946897 -0.04346961 -0.03448645 -0.008142065 0.03945368 0.0035053466 -0.01718514
0.013614633 -0.05790284 -0.040519755 0.011277932 -0.03623667 0.03620777 0.009790694 0.06268992
-0.032325648 0.024606902 -0.053093232 -0.015244927 -0.01507173 0.051135212 0.029665476 -0.014008848
0.0026172977 -0.041840747 0.036112636 -0.03292619 -0.033184387 -0.029879795 0.031047463 0.03792823
-0.002576028 0.06318389 -0.00087737467 0.0659054 0.014482576 -0.01636269 0.055203516 0.0274027
-0.03470139 0.058484532 0.04001362 0.026625803 -0.032523636 -0.002709635 0.02591124 0.004551337
0.009839198 0.046081122 -0.0025577357 -0.015003903 0.042935498 -0.039631587 -0.03251977 -0.03575058
0.0008147184 0.032483943 -0.045387823 0.004117904 0.0050450517 -0.005590925 -0.019587284 -0.030953396
0.02865716 -0.037330523 -0.0073335874 0.017624307 0.019670753 0.028800553 0.06616047 0.07225261
0.048120026 0.049768735 0.01857653 -0.0052727605 -0.002585985 0.038494308
00000000: 4fa3 e83b 2d53 cdbb c98c 9ebc db41 823c
00000010: 8cc9 09bc cd22 033b dd2b 1a3d 4a68 1cbd
00000020: 17ec 2d3d 9589 84bc 6ba5 863b 8cc8 a43c
00000030: fb4f 39bc aa65 c83b b71b 513c 77b0 2b3c
00000040: c578 d1bc 03d8 43bd 9cc4 0b3d 19fc 3e3d
00000050: ae2c 8abc 2064 b5bc 7242 4fbd b53e 003d
00000060: 2cc8 23bc be89 a4bc 9586 493b 84e1 c5bc
00000070: 7224 173d 8985 8dba aad2 6fbd 9dc3 453c
00000080: d041 863d 9cfb 33bd 2a17 ed3c 0a8a 6e3c
00000090: d9f7 203d 9b28 433b 1fdc 40bd 286a 233c
000000a0: ba47 943c 899c b8bc 1dd1 443d 0fe9 21bd
000000b0: 03c7 d9bc 906a 1a3c ab68 323c 6560 66bd
000000c0: 4fff 243d dd58 4f3d cf1e 0d3d 529d 52bd
000000d0: ebf9 5f3d 7b3f c73c 2fd9 943d 9072 a93c
000000e0: 2a20 953c 0906 f3ba fb7f 823a a029 a83c
000000f0: 41ee 103b 2137 1d3d acfc 323d 5ea4 033d
00000100: 3d08 78bc 0c6e 6abc cdae 6bbd 6b2d a93c
00000110: d05c eabc 5fdf 1bbd 64fa 2abc f836 cdbc
00000120: 8338 833c 0296 12bc 310d 32bd aa41 0dbd
00000130: 4c66 05bc 2f9a 213d f5b9 653b dac7 8cbc
00000140: e90f 5f3c 872b 6dbd 0bf8 25bd 13c7 383c
00000150: e76c 14bd 994e 143d 2669 203c 9363 803d
00000160: e667 04bd 6a94 c93c 4a78 59bd dcc5 79bc
00000170: 6bef 76bc 2873 513d 0305 f33c 5e85 65bc
00000180: f886 2b3b 3461 2bbd d8ea 133d 9ddd 06bd
00000190: 5aec 07bd 79c6 f4bc 4057 fe3c a25a 1b3d
000001a0: 94d2 28bb 8e66 813d 9eff 65ba 69f9 863d
000001b0: 5448 6d3c 0c0b 86bc 151d 623d a17b e03c
000001c0: 0b23 0ebd 7a8d 6f3d 52e5 233d 5b1e da3c
000001d0: 8137 05bd 2294 31bb cf43 d43c 6223 953b
000001e0: 9634 213c 8fbf 3c3d af9f 27bb eed2 75bc
000001f0: 22dd 2f3d bb54 22bd 7333 05bd 336f 12bd
00000200: d492 553a e20d 053d 95e8 39bd 7cef 863b
00000210: f650 a53b 1434 b7bb 8375 a0bc fa91 fdbc
00000220: 6cc2 ea3c e4e7 18bd 974e f0bb da60 903c
00000230: 8f24 a13c 23ef eb3c 247f 873d 2df9 933d
00000240: 8119 453d 4dda 4b3d cf2d 983c 1fc7 acbb
00000250: a179 29bb 35ac 1d3d

3.weight f4 [50, 150]
-0.031176882 0.037461836 0.024060495 -0.0340091 0.14169435 -0.066540614 0.009902807 0.03026937
0.03221276 -0.03644782 0.03761146 0.06261855 0.054310277 0.081286035 -0.04012537 0.2350026
-0.0396302 0.0599361 0.0189283 -0.09950768 -0.064972125 0.05560164 0.02329502 -0.092755936
0.047098238 0.24531952 0.028229835 -0.021563498 -0.068687 -0.05005945 0.0056978115 -0.08718227
0.074714586 -0.055597953 0.0492901 -0.052331444 -0.03414759 -0.06976188 0.009388588 -0.0729822
0.13206756 -0.056728113 0.053018786 -0.07308667 0.035482965 0.03778525 -0.0075903814 0.052385405
0.062951826 -0.04469112 0.013670214 -0.030586803 -0.0028135092 0.021895654 -0.025115594 0.8322449
-0.059950035 -0.12553868 -0.08087668 0.034940567 0.20945418 0.20890424 -0.0031234052 -0.083196856
-0.075871155 0.1260324 0.044968452 -0.003948062 -0.037307095 0.13445812 -0.08296694 0.01640151
-0.07397555 -0.023638811 -0.029056836 -0.059290867 -0.07327023 -0.019511659 -0.060846586 0.02049024
0.0031736225 0.041159254 0.009919011 0.14358951 0.057463545 0.051200476 -0.070650294 0.07347103
0.061820816 -0.04955536 0.06111713 -0.023430249 0.016873082 -0.054281984 -0.0011732924 0.019249488
-0.0037449317 -0.0041554393 -0.04411086 -0.08872982 0.024958326 0.021924414 -0.01498209 -0.057773292
-0.06597982 0.052416626 0.028211331 0.0028347156 -0.060709655 -0.06102084 0.028533354 0.08241098
-0.04682952 -0.049476244 0.071568 0.0098012425 0.08171575 0.08049275 0.0023350646 0.027429758
-0.06373209 -0.019541342 -0.041326948 -0.037263215 0.013522802 0.052417688 -0.07219102 0.72158515
-0.07863698 0.033630725 -0.037691906 -0.08251641 -0.059417587 1.8605039 0.009848472 0.011557308
0.19778305 -0.058522217 0.047248293 0.035090026 -0.08941514 -0.06307931 -0.061002884 -0.028902868
0.0073564546 0.31593594 -0.06254825 0.02954962 -0.04895765 -0.035786334 -0.020765852 -0.060277756
0.09409372 0.07200106 -0.041786045 -0.017897913 -0.049436703 -0.030694067 0.076214805 0.058696833
-0.022940112 0.102060884 0.029773992 0.019532815 0.038743716 0.10464799 0.06793615 -0.0167526
0.023029717 -0.015969984 0.014229893 -0.06380005 0.06946901 0.08159401 -0.056057893 0.17799331
0.03632222 0.00093458337 -0.0013049081 -0.034548327 -0.06606458 0.027723974 0.017984532 -0.026501335
-0.010307208 -0.025253123 0.018930977 -0.026663348 -0.04897499 0.093867004 -0.084414124 0.10561089
0.08641353 -0.006920908 -0.059107736 0.038097188 0.082430586 0.03433673 0.09857732 -0.007553298
-0.015747424 -0.04761642 0.061014276 0.06473963 0.035890643 -0.010984966 0.00637155 0.032928627
0.0065768785 -0.0010947686 0.1690834 -0.28945836 0.101921506 0.029510058 0.017415695 0.02194975
-0.061200894 -0.008129813 -0.02980922 0.06154531 -0.022850057 -0.004766305 0.052878946 -0.021038778
-0.052959114 -0.0071206386 -0.0236866 0.038544603 0.07429189 0.10397445 -0.012671874 0.045928072
0.04752321 0.06396713 -0.03423023 0.037473973 0.059137627 0.05588151 -0.043954752 -0.044526506
-0.06050784 0.102699414 -0.045775265 0.066129774 0.05842205 -0.06858225 0.024342176 0.07339991
0.040618427 0.0044166115 0.080621794 0.12292535 -0.0027258974 0.036338538 0.046472672 0.04825883
00000000: a966 ffbc 9571 193d 841a c53c 204d 0bbd
00000010: 5318 113e 7246 88bd 623f 223c 78f7 f73c
00000020: 87f1 033d 4f4a 15bd 790e 1a3d 283e 803d
00000030: 7474 5e3d 4b79 a63d 805a 24bd 86a4 703e
00000040: 4753 22bd 8e7f 753d 860f 9b3c afca cbbd
00000050: 1b10 85bd 8cbe 633d 33d5 be3c d3f6 bdbd
00000060: 15ea 403d 0a35 7b3e 4142 e73c efa5 b0bc
00000070: c5ab 8cbd 230b 4dbd b5b4 ba3b 9e8c b2bd
00000080: f603 993d aeba 63bd 6ae4 493d 7f59 56bd
00000090: 58de 0bbd 51df 8ebd 98d2 193c b177 95bd
000000a0: b83c 073e bd5b 68bd 3a2a 593d 77ae 95bd
000000b0: 9656 113d b5c4 1a3d bcb8 f8bb 1492 563d
000000c0: e3ec 803d 090e 37bd 09f9 5f3c 2d91 fabc
000000d0: da62 38bb 845e b33c 38bf cdbc 000e 553f
000000e0: 2b8e 75bd 368d 00be aca2 a5bd d71d 0f3d
000000f0: 287b 563e feea 553e 0bb2 4cbb 1d63 aabd
00000100: 5662 9bbd a30e 013e d730 383d bf5e 81bb
00000110: 53cf 18bd 64af 093e 92ea a9bd 765c 863c
00000120: 7e80 97bd 2ea6 c1bc 9a08 eebc fbda 72bd
00000130: b40e 96bd ead6 9fbc 453a 79bd 26db a73c
00000140: 8dfc 4f3b 9b96 283d 5983 223c 2109 133e
00000150: e55e 6b3d 97b7 513d 1ab1 90bd fb77 963d
00000160: d337 7d3d 90fa 4abd f555 7a3d cbf0 bfbc
00000170: 6b39 8a3c c956 5ebd 29c9 99ba 1ab1 9d3c
00000180: 876d 75bb 5a2a 88bb 97ad 34bd fbb7 b5bd
00000190: 6775 cc3c d49a b33c 7177 75bc b0a3 6cbd
000001a0: 6e20 87bd d1b2 563d 731b e73c a3c6 393b
000001b0: b0aa 78bd fdf0 79bd c8be e93c 16c7 a83d
000001c0: 50d0 3fbd 9aa7 4abd 3e92 923d 6495 203c
000001d0: 965a a73d 62d9 a43d e207 193b 5fb4 e03c
000001e0: f885 82bd 2a15 a0bc 7246 29bd 50a1 18bd
000001f0: be8e 5d3c eeb3 563d e3d8 93bd ceb9 383f
00000200: 6d0c a1bd 5fc0 093d d462 1abd 5dfe a8bd
00000210: db5f 73bd fe24 ee3f 7c5b 213c dd5a 3d3c
00000220: a487 4a3e feb4 6fbd 6d87 413d 8fba 0f3d
00000230: 491f b7bd ba2f 81bd 29de 79bd b5c5 ecbc
00000240: 6a0e f13b 5bc2 a13e 4c19 80bd 0b12 f23c
00000250: d187 48bd b194 12bd 261d aabc cfe5 76bd
00000260: 35b4 c03d 4b75 933d d827 2bbd a59e 92bc
00000270: 247e 4abd 2072 fbbc 8216 9c3d 176c 703d
00000280: e7ec bbbc 4c05 d13d 96e8 f33c 4803 a03c
00000290: bbb1 1e3d af51 d63d 1c22 8b3d c03c 89bc
000002a0: d1a8 bc3c 7cd3 82bc 7f24 693c 9aa9 82bd
000002b0: c545 8e3d c31a a73d f69c 65bd e143 363e
000002c0: 9cc6 143d d4fe 743a 7309 abba 8c82 0dbd
000002d0: de4c 87bd 631d e33c 4c54 933c 5419 d9bc
000002e0: 90df 28bc a3df cebc 2315 9b3c 186d dabc
000002f0: 009a 48bd 583d c03d 50e1 acbd 864a d83d
00000300: 94f9 b03d c9c8 e2bb f41a 72bd cc0b 1c3d
00000310: 5ed1 a83d aca4 0c3d e8e2 c93d a881 f7bb
00000320: be00 81bc 6f09 43bd 1bea 793d 3696 843d
00000330: 1102 133d 49fa 33bc 6fc8 d03b 2be0 063d
00000340: db82 d73b 577e 8fba 3324 2d3e e333 94be
00000350: 39bc d03d 14bf f13c 5cab 8e3c f6cf b33c
00000360: caad 7abd e832 05bc 7732 f4bc ef16 7c3d
00000370: 0b30 bbbc aa2e 9cbb 9897 583d 8459 acbc
00000380: a8eb 58bd 3f54 e9bb 670a c2bc f2e0 1d3d
00000390: 5926 983d 8ef0 d43d b19d 4fbc 131f 3c3d
000003a0: b3a7 423d 3301 833d ff34 0cbd 4f7e 193d
000003b0: 4c3a 723d 03e4 643d e609 34bd 6d61 36bd
000003c0: 12d7 77bd 1254 d23d d87e 3bbd 0c6f 873d
000003d0: f64b 6f3d da74 8cbd 3e69 c73c b152 963d
000003e0: 825f 263d 39b9 903b 0a1d a53d 49c0 fb3d
000003f0: f8a4 32bb b8d7 143d 215a 3e3d 0dab 453d

3.bias f4 [50]
-0.055940714 0.09365057 0.070128754 0.060713924 0.034795154 0.06497024 -0.051017426 -0.06184063
-0.08047223 -0.05708576 0.09017396 -0.017775904 0.06678665 0.01579509 -0.04822134 0.07067909
0.088609286 -0.013128138 -0.084094316 0.05135866 -0.065938845 -0.022265228 0.01607358 0.07972433
0.06317098 -0.028193206 -0.07969748 -0.026596962 0.01459727 -0.020504039 0.05140112 -0.033392746
0.07571666 0.08776088 0.012012549 -0.004846987 0.004503227 0.01947554 -0.038192485 -0.08752898
0.044356637 0.07566463 -0.027447488 -0.08141776 -0.071068935 -0.030869544 -0.010110594 0.03666819
-0.05489212 -0.034779556
00000000: 1722 65bd dfcb bf3d aa9f 8f3d 2aaf 783d
00000010: 5d85 0e3d 1e0f 853d a6f7 50bd 9a4c 7dbd
00000020: a0ce a4bd c2d2 69bd 20ad b83d c69e 91bc
00000030: 70c7 883d b464 813c bd83 45bd 33c0 903d
00000040: c978 b53d 6717 57bc a439 acbd 755d 523d
00000050: f20a 87bd 9165 b6bc beac 833c 8246 a33d
00000060: c95f 813d 70f5 e6bc 6f38 a3bd dfe1 d9bc
00000070: 6329 6f3c 16f8 a7bc fb89 523d d5c6 08bd
00000080: 5611 9b3d fabb b33d 48d0 443c 79d3 9ebb
00000090: ce8f 933b 2b8b 9f3c b96f 1cbd 6542 b3bd
000000a0: 4eaf 353d 0ff6 9a3d 8ed9 e0bc 5bbe a6bd
000000b0: 978c 91bd 20e2 fcbc e8a6 25bc 6231 163d
000000c0: 8fd6 60bd 0275 0ebd

5.weight f4 [10, 50]
-0.060489286 0.017105635 0.055922832 0.049607363 -0.039455228 -0.112660035 0.12883686 -0.10756903
0.12870304 -0.12444882 -0.046951145 0.062202986 0.11071037 0.072860055 -0.13657515 -0.07913155
0.09294787 -0.06820073 -0.043408316 -0.08215705 -0.119132295 0.093143046 -0.1269321 -0.06466534
0.07231381 -0.02318783 0.011620991 0.04921943 -0.12074063 -0.045289543 -0.014512358 0.082652986
-0.064127825 0.000841852 -0.072333835 0.04063941 0.031021778 -0.08173417 -0.08392026 -0.039438866
0.10784459 -0.027458496 0.030640705 0.11874945 0.03854078 0.11415444 -0.050389715 -0.0450737
-0.1609684 -0.05099389 -0.03666372 -0.0891118 0.11139585 -0.07066277 -0.119258314 0.10473174
0.03112099 0.05684982 -0.09145345 -0.30291122 -0.08960436 -0.038968377 0.017728062 -0.06273931
-0.1414766 -0.06593751 -0.14158005 -0.12250607 0.085359626 -0.10385406 0.10529551 0.07980746
0.14900011 -0.039712213 0.008180167 -0.03695114 0.017871942 -0.13128063 -0.13399474 -0.038212556
0.12428339 -0.05357673 0.010391741 -0.08297709 -0.057666525 0.0025831047 -0.097673975 0.13747421
-0.04722918 0.044527996 0.07337168 -0.15870167 0.05150215 0.11625199 0.048085768 -0.034580287
0.0081697665 0.017529698 0.10251091 -0.021423347 0.05752768 0.1329992 0.04753476 -0.021051351
-0.09255904 -0.09905369 0.09878699 -0.0055188583 -0.054441657 0.28806928 -0.03093401 -0.048567154
0.6453968 0.07729895 -0.06487197 -0.050623737 0.14342642 0.075523496 0.0428297 -0.117912754
-0.05645577 -0.086794846 -0.009812063 -0.08242727 -0.028835004 -0.045234505 0.008374243 -0.11800611
-0.052998547 0.03975514 -0.0068878527 -0.13354136 -0.07413689 -0.00737452 0.096067816 -0.0141194165
0.05841891 -0.05622535 0.10797859 0.021967193 0.16533148 0.14093533 -0.01701805 0.059412643
0.0008937612 -0.13174824 0.00073221273 0.02110827 -0.06565402 -0.067716815 0.012452979 -0.032770876
0.03624892 -0.026256127 -0.14316154 0.08967141 -0.041983116 -0.06722919 0.08940661 -0.026976187
-0.15977123 0.12745734 -0.031371597 -0.010679727 0.03315336 0.0935127 -0.10146884 -0.03727334
0.046689622 0.10214636 -0.028226677 -0.13158637 0.026649455 -0.07353116 -0.04707766 -0.1406263
0.038039282 0.13330986 -0.10652549 0.12516724 -0.041788124 -0.054191817 -0.037077963 -0.0180581
-0.15229595 0.13142431 0.13067442 0.04910211 0.037878793 -0.05692103 -0.14366302 -0.0017355713
-0.07944364 0.02492222 0.040994465 0.0053003146 0.10406302 -0.007893128 0.12298962 0.04356441
-0.025373366 -0.07912485 -0.0072436756 -0.11985209 0.023236545 0.11695028 0.10314581 -0.097527824
-0.047912348 -0.12232592 -0.08264057 -0.02769237 -0.04997002 -0.018936459 -0.1421439 -0.11505752
-0.0069253016 0.0066996124 -0.01763872 0.10376838 -0.026552001 0.01985535 -0.122729816 -0.104734056
-0.0011716941 -0.02602676 0.06395888 0.11852873 0.024140581 -0.03364485 0.053162914 0.03878679
0.0617598 -0.039005782 -0.05025991 -0.04547897 0.02863459 -0.04508234 -0.1031493 0.047241148
-0.08831166 -0.03352115 -0.0078896005 0.12717475 0.12793393 0.13300535 -0.08277935 0.039547704
-0.07169342 0.11129438 0.1927907 0.06913903 0.02661648 -0.003359623 -0.037567977 -0.07762005
00000000: 9dc3 77bd 1e21 8c3c 570f 653d 1731 4b3d
00000010: ce9b 21bd 4eba e6bd cfed 033e 274d dcbd
00000020: bbca 033e 06df febd d84f 40bd 8fc8 7e3d
00000030: 1ebc e23d a737 953d 5bda 0bbe b90f a2bd
00000040: 745b be3d d3ac 8bbd ebcc 31bd f541 a8bd
00000050: a2fb f3bd c8c1 be3d 7dfa 01be 436f 84bd
00000060: 4319 943d 67f4 bdbc f865 3e3c 509a 493d
00000070: dd46 f7bd 8781 39bd 3ec5 6dbc f845 a93d
00000080: 7355 83bd bbaf 5c3a c323 94bd 8375 263d
00000090: 6221 fe3c 3f64 a7bd 63de abbd a68a 21bd
000000a0: a0dd dc3d a4f0 e0bc 3702 fb3c e932 f33d
000000b0: f0dc 1d3d cec9 e93d 7265 4ebd 339f 38bd
000000c0: e6d4 24be f8de 50bd b22c 16bd 3f80 b6bd
000000d0: 8223 e43d a4b7 90bd b43d f4bd 987d d63d
000000e0: 72f1 fe3c 5bdb 683d f24b bbbd 2e17 9bbe
000000f0: 7e82 b7bd 4e9d 1fbd 713a 913c 787d 80bd
00000100: 3edf 10be 3f0a 87bd 5cfa 10be 76e4 fabd
00000110: 07d1 ae3d 70b1 d4bd 2ca5 d73d 1872 a33d
00000120: 7c93 183e 46a9 22bd 1b06 063c 145a 17bd
00000130: 2e68 923c 6e6e 06be eb35 09be c584 1cbd
00000140: 4a88 fe3d 4673 5bbd 1f42 2a3c e4ef a9bd
00000150: bc33 6cbd 4e49 293b 4b09 c8bd 0ac6 0c3e
00000160: 6273 41bd fd62 363d e443 963d b182 22be
00000170: ebf3 523d 8615 ee3d 95f5 443d 0fa4 0dbd
00000180: 7cda 053c 719a 8f3c 3df1 d13d 0480 afbc
00000190: 25a2 6b3d f130 083e cfb3 423d e273 acbc
000001a0: 988f bdbd a9dc cabd d550 ca3d 8ad7 b4bb
000001b0: 37fe 5ebd d17d 933e 5269 fdbc 5aee 46bd
000001c0: ba38 253f e94e 9e3d 98db 84bd d65a 4fbd
000001d0: 60de 123e 10ac 9a3d 326e 2f3d 3e7c f1bd
000001e0: 2a3e 67bd 7fc1 b1bd c6c2 20bc a1cf a8bd
000001f0: 6337 ecbc d147 39bd 1f34 093c 30ad f1bd
00000200: 0115 59bd 49d6 223d 7fb3 e1bb 11bf 08be
00000210: 15d5 97bd f5a5 f1bb 34bf c43d 2055 67bc
00000220: ab48 6f3d 8d4c 66bd e123 dd3d 8bf4 b33c
00000230: a84c 293e 5a51 103e 7069 8bbc ac5a 733d
00000240: 4c4b 6a3a 03e9 06be f7f1 3f3a 40eb ac3c
00000250: 9d75 86bd 1daf 8abd 9407 4c3c c13a 06bd
00000260: bf79 143d 1717 d7bc f098 12be a5a5 b73d
00000270: 7df6 2bbd 75af 89bd d01a b73d 2afd dcbc
00000280: 129b 23be 2d84 023e 817f 00bd 06fa 2ebc
00000290: d1cb 073d 9683 bf3d e5ce cfbd eeab 18bd
000002a0: 9e3d 3f3d 1c32 d13d a23b e7bc 94be 06be
000002b0: f54f da3c 8197 96bd 81d4 40bd 5700 10be
000002c0: 14cf 1b3d 6182 083e 092a dabd d72b 003e
000002d0: 062a 2bbd 3df8 5dbd 10df 17bd 95ee 93bc
000002e0: 78f3 1bbe 1894 063e 84cf 053e 4b1f 493d
000002f0: cb26 1b3d 0726 69bd 661c 13be 1c7c e3ba
00000300: 59b3 a2bd af29 cc3c d0e9 273d 43ae ad3b
00000310: fe1e d53d 2e52 01bc fbe1 fb3d 9870 323d
00000320: cedb cfbc 360c a2bd 5b5c edbb 0375 f5bd
00000330: 915a be3c a183 ef3d 1c3e d33d abbc c7bd
00000340: bd3f 44bd 0386 fabd 763f a9bd 1cdb e2bc
00000350: 5dad 4cbd a220 9bbc 2c8e 11be 47a3 ebbd
00000360: a4ed e2bb 6c88 db3b 147f 90bc 8484 d43d
00000370: 9583 d9bc b0a7 a23c c559 fbbd cf7e d6bd
00000380: 8893 99ba 1236 d5bc e0fc 823d 31bf f23d
00000390: 78c2 c53c 2fcf 09bd 5bc1 593d e6de 1e3d
000003a0: d8f7 7c3d 87c4 1fbd 56dd 4dbd 2848 3abd
000003b0: 1693 ea3c 42a8 38bd f13f d3bd ef7f 413d
000003c0: bedc b4bd 794d 09bd 6243 01bc 193a 023e
000003d0: 1d01 033e 8e32 083e 3888 a9bd c6fc 213d
000003e0: 00d4 92bd 4fee e33d ed6a 453e c498 8d3d
000003f0: ce0a da3c 1f2d 5cbb e1e0 19bd 43f7 9ebd

5.bias f4 [10]
-0.13526659 -0.053555686 0.124160565 0.033234634 0.0807727 -0.028743597 -0.11239979 0.0058713155
-0.073850326 0.07139285
00000000: 5383 0abe 355d 5bbd e547 fe3d 0a21 083d
00000010: 286c a53d b177 ebbc dc31 e6bd 2a64 c03b
00000020: d73e 97bd 6a36 923d

7.weight f4 [1, 10]
-0.23403537 -0.24907444 0.07656393 -0.27110577 -0.12832737 0.13308889 -0.021151653 0.07561392
-0.07091653 -0.16779219
00000000: f8a6 6fbe 5f0d 7fbe 8dcd 9c3d 60ce 8abe
00000010: 4068 03be 7448 083e 3b46 adbc 79db 9a3d
00000020: b03c 91bd b7d1 2bbe
