model9.pth (torch, 181487 bytes, 7 tensors)

1.weight f4 [150, 243]
00000000: 212b 623d 66eb 46bd f0ef 97bc 69ca 433d
00000010: 49cc 9bbd eec0 f73c f87e 893c 3abc 053c
00000020: 276b 50ba e16d 11bd ae87 1a3d c0f9 093c
00000030: aaf8 0abd 1e66 04bd 1198 22bd cb0d 7bbd
00000040: bbd2 6ebd abe0 0abc 4a3b a43b 6680 80bd
00000050: ab71 973c b314 6c3d a1bc 8e3c ee8f a83d
00000060: e6ac ba3b 2b24 673c bdbe 443d 2629 f03c
00000070: d401 a33b f2f1 6bbd fe5e e3ba 1803 bebc
00000080: efd9 1f3b c219 85bb de37 1c3d 6005 8f3b
00000090: c860 b8bc 6120 02bb e979 47bd 99cd 733b
000000a0: aacb f23c b178 bfbc 31fb e0bc b867 47bd
000000b0: ac3b 603c 0c53 893c dfff 8b3d 10b5 e7bc
000000c0: 1822 3f3c 8d65 4fbd 18e9 463d d2c9 4e3d
000000d0: 08a1 6abd 351e 7fbd a3f4 01bd 62e2 e0bc
000000e0: 527b 67bc 12b2 be3c 3fc4 7e3c 4977 77bd
000000f0: dc48 d93c 0578 5dbc 3b4b 963c 85cd 8abb
00000100: b63d 81bd 45d7 c5bc 243b 55bc 2b1f cb3b
00000110: a36b 5b3d fec8 ca3c 45e2 3bbb 64fd 2d3d
00000120: b0eb 70bd fc27 ee3b 22ed c93c b1d9 2a3d
00000130: 6276 073c a115 d73c deb0 bd3c d309 57ba
00000140: 43ba 40bd eb48 57bd 865b 9a3d a2c8 3b3d
00000150: 97e6 87bd da9b 123d 11dd 7cbd 7064 a1bb
00000160: df00 d43c a7f7 71bd f657 273d 4287 3bbd
00000170: 25d6 98bd abb5 8f3d 954e c8bc dc84 a33d
00000180: 452e 933c a16c b33c e6e4 49bd 8220 e5bc
00000190: 78b2 093c c660 67bc f4f4 b1bc eba2 133d
000001a0: 999d d6bb f9e4 64bb 25f6 723c de05 6dbd
000001b0: 94bc 093d f676 80bd 7ec5 6abd a2f6 47bd
000001c0: aaa0 be3c 58a3 4b3b 3e18 fdbc e794 f6bb
000001d0: 9622 51bb bca6 963c 7282 ba3c 9ada 8f3b
000001e0: 6733 a73b 3f04 1c3d d525 19bc b3af adbc
000001f0: d7a8 0fbd b83b 163d 92cb 99bd 1020 71bd
00000200: dc4d a03c 69e8 a33c 282c 0fbd ec84 53bc
00000210: 0691 01be 1f50 1fbe 4074 91bd 8606 ffbd
00000220: 3000 38bb 01c9 8a3b b6d8 4f3d afdf 9b3c
00000230: a79f 6ebd be67 5e3d 9591 e1bd b555 a0bd
00000240: 26df dcbd c2cb 993c e636 ecbc a51f 83bd
00000250: 9bdd 3abd f1e5 16bd aa3e 0abe 94b9 85bd
00000260: 5085 a6bd 7ce7 1fbd 7d97 07be 7758 d23c
00000270: 82c6 c8bd d92c 89bd d549 8dbd f664 c1bd
00000280: d1f0 c6bd 35e4 e1bd ecc9 c23c 89cb 713c
00000290: f83d e73c f531 cdbc f790 05bd 462d 8dbd
000002a0: 7007 3abb db88 3abc 2eb3 70bc 712b 4d3d
000002b0: 6173 f43a 8be6 a2ba 16bb 9dbc 856b 96bd
000002c0: 1816 5f3b 1b08 003d eb2f 0d3d 5836 953d
000002d0: c5ce c93c ab93 723d 18d9 51bc 2dac 93bd
000002e0: dbc3 23bd d3d6 6dbd 203e 29bd f300 16bd
000002f0: 2a06 10bc f528 26bb 5330 703d c6f7 ee3c
00000300: ebcf 23bb 8d1d c63c 5b31 a53c 4cb2 7c3c
00000310: ad15 863d 71e9 543d da44 38bd 4c61 19bd
00000320: 55a5 273b 8b7d 003d df3b 253d 097d 483b
00000330: 762e f4bc 64cc cfbc 5bb4 21bc 94eb 4fbc
00000340: aab9 25bd 9cfc db3b 331a 6e3d 54ec d53c
00000350: 12f5 8fbc 7269 e03c 9690 833d 05c4 1ebd
00000360: e1d8 323d 1343 9b3d 9a89 b8bc 29de d9bb
00000370: 5a83 7d3d 45af 26bd f3a5 ef3d 8bdc 02bd
00000380: b06f 88bc 5536 82bd 4128 973d e8be 4ebc
00000390: f2bd 6eba 1325 893c a1f3 01bd a70b 0a3d
000003a0: e378 22bc 505c 8fbd 897c 99bb 6a31 48bd
000003b0: 6f99 603e d19b 2ebd c725 8e3c 6c22 b23d
000003c0: 0a01 87bd 5f46 b7bc 3c0f da3c 67fa 3b3d
000003d0: e53b 4dbd 5d0a 983b dfb8 543c 3121 033d
000003e0: 5c0a 3e3d 1c5e 4bbd 5ab8 46bd 1501 d83c
000003f0: a4d6 1e3d cb56 81bc ad8a 8dbd f185 67bb
0.055216912 -0.048564337 -0.018547028 0.047800455 -0.07607324 0.030243363 0.016784176 0.0081625525
-0.0007950537 -0.03550518 0.03772705 0.008421361 -0.03392855 -0.03232395 -0.039695803 -0.06129245
-0.058306437 -0.008476417 0.0050119506 -0.0627449 0.018486818 0.057636928 0.01742393 0.082305774
0.0056968806 0.014107744 0.048033465 0.029316496 0.004974583 -0.057603784 -0.0017347035 -0.023194835
0.0024391373 -0.0040619085 0.038139217 0.0043646544 -0.022507086 -0.0019855725 -0.048700247 0.0037201403
0.02963813 -0.02337298 -0.027463527 -0.0486829 0.013686102 0.016763233 0.06835913 -0.02828458
0.011665843 -0.050633956 0.04856214 0.05048544 -0.057282478 -0.062284667 -0.031727444 -0.027451698
-0.014128523 0.02327827 0.015549718 -0.060416494 0.026524 -0.013517384 0.01834642 -0.0042359256
-0.063105986 -0.0241505 -0.0130145885 0.006198784 0.053569447 0.024754044 -0.0028668803 0.04247798
-0.05881852 0.00726795 0.024649207 0.041711513 0.008267971 0.02625543 0.023155626 -0.0008203063
-0.047052633 -0.052559774 0.07536988 0.045845635 -0.066357784 0.035793163 -0.061734263 -0.004925303
0.025879322 -0.05907407 0.04085537 -0.04578329 -0.0746272 0.07017072 -0.024451533 0.07984325
0.017966399 0.021902384 -0.04929056 -0.027969602 0.008404367 -0.014122194 -0.021723248 0.036044043
-0.006549549 -0.0034926517 0.014829193 -0.057866924 0.033627108 -0.0627269 -0.05731725 -0.04881919
0.02326997 0.0031072702 -0.030895349 -0.0075250748 -0.0031911484 0.018390052 0.02276728 0.004390073
0.005102563 0.038089987 -0.009347399 -0.021201944 -0.035073128 0.036678046 -0.07509531 -0.058868468
0.019568376 0.020008283 -0.03495422 -0.012910109 -0.12652978 -0.15557908 -0.07102251 -0.12452416
-0.0028076284 0.0042353873 0.05074378 0.01902756 -0.058257725 0.054298155 -0.11014096 -0.07828847
-0.1078475 0.018773917 -0.028834771 -0.0640252 -0.045621496 -0.036840383 -0.13500467 -0.06529537
-0.08130896 -0.03903912 -0.13241382 0.025676949 -0.09803487 -0.06698007 -0.06898848 -0.09443085
-0.09713901 -0.11029855 0.023777924 0.014757999 0.028227791 -0.025048235 -0.032608952 -0.06893401
-0.002838578 -0.011385168 -0.014691157 0.050090257 0.0018650108 -0.0012428326 -0.019254249 -0.073447265
0.0034040269 0.03125773 0.034469526 0.07285756 0.024634728 0.05922286 -0.012808107 -0.07210574
-0.039981704 -0.0580662 -0.041319013 -0.036622 -0.008790532 -0.0025354002 0.058639836 0.029170882
-0.0024995755 0.024184013 0.020165136 0.015423369 0.06547103 0.05198044 -0.044987537 -0.037446305
0.0025580723 0.031369727 0.0403403 0.0030592105 -0.02980731 -0.025366016 -0.00986966 -0.012690444
-0.040460266 0.006713463 0.058130454 0.026113667 -0.017572913 0.02739403 0.06424062 -0.038761158
0.043663863 0.07581153 -0.022526551 -0.006648798 0.061892845 -0.040694494 0.11701574 -0.031948607
-0.01665482 -0.06358019 0.07380725 -0.012618758 -0.00091072835 0.016741311 -0.031726483 0.03370252
-0.009916517 -0.07000029 -0.004684035 -0.04887525 0.2193353 -0.042629067 0.017351998 0.08697972
-0.06591995 -0.022372423 0.026618592 0.0458931 -0.050105948 0.0046399073 0.01298353 0.032014076
0.0463966 -0.049650297 -0.048515655 0.026367703 0.038778916 -0.015788456 -0.06911216 -0.0035327638

1.bias f4 [150]
00000000: 5c75 aebc 62eb 8ebc 71a8 58bc 9d9f 75bd
00000010: 81f5 403b ecc4 2abd bf50 153b 64df 893d
00000020: b50d 373d 32fb 3e3d f116 ab3c 7590 5b3d
00000030: 21ee b33b 6a3b 38bd db51 683c 58b5 8fbd
00000040: 4edb 06bc e707 d8bc edcf 7f3c f5f2 f3bc
00000050: 3ff8 4ebd cb2c 10bd 53e0 a8bc 838f 163a
00000060: 22ed 4e3d c654 173d e00c bfbc df1e 043d
00000070: 9330 9d3c aea3 07bd e233 e53c 8380 213d
00000080: 346d bcbc 6866 213c 9cfa 84bd 4e5a ca3c
00000090: 11ca 733d 55ca 473d 3cc4 893b b0c1 4ebd
000000a0: 88aa c6bb 89eb 1e3d 6603 80bd e304 33bd
000000b0: e35d a8bc c87f e9bc 5238 2abd 1cb2 783d
000000c0: e0b2 20bd dd80 06bd 39b1 dabb 3c98 80bd
000000d0: 4eb3 23bd d382 f4bb a7b4 ce3c cdc3 a1bc
000000e0: cada 15bc 2167 023c ac9a 01bb ce6e 1dbb
000000f0: c0eb 843d 3755 cf3c b265 203d 03bd 45bd
00000100: d5c8 313d bd57 ad3c 7527 bcbc 805f 223d
00000110: ac06 183d 5c43 2e3d 7733 ef3c dfa8 dc3c
00000120: db76 563d 8207 463d 0785 003d f685 81bd
00000130: 486a 143d 6ee5 ce3c 31d7 5dbc 1348 42bd
00000140: 1c1b 02bc 52b7 efbb d785 46bd 0e42 58bc
00000150: b9b1 7a3d 9d60 cd3c 717d 1d3d aba0 6dbd
00000160: 7e24 2e3b 1372 64bd 0c41 653d 11c4 843d
00000170: 4aa6 723c 546e 123d 95ed 46bd 27c8 69bd
00000180: 92f4 16bd aafe 323c 189d 6abd 65a8 f93c
00000190: 1b20 44bd eb89 703b 3b6d 023b 0744 66ba
000001a0: 0f72 973c f49d 8a39 e5bf 5bbc ecc9 52bd
000001b0: 2d4e a93c c69a 243d 9915 113d 6881 67bc
000001c0: 7b4a 99bb 135d 663d 9e2e 8d3a d597 993c
000001d0: c185 793c 4fcd 8e3c a2c1 c43c feda 06bb
000001e0: fcc0 2cbd ac39 babc 1623 173d 734d 1cbd
000001f0: 3622 51bd f2d6 7cbd b5d3 57bd d1a2 a0bd
00000200: 054b c33c 5c65 403d 2b4c b43c 4e7c 55bd
00000210: d89c 7bbd 3064 cebb bd67 ac3c 4144 33bd
00000220: 3948 a1bc f947 7ebd 35a0 b0bc 73f0 2bbc
00000230: 0378 233d 04d8 823c fb44 e93c 5dd2 4d3d
00000240: 2de0 5f3d 751b 0e3d 3768 163c 13cb de3b
00000250: cf16 63bd 5e84 013d
-0.021296196 -0.017446224 -0.013223753 -0.059966672 0.0029443207 -0.041691706 0.0022783724 0.067320615
0.044690806 0.046626277 0.020884963 0.05360456 0.0054910337 -0.044978537 0.014179672 -0.070170105
-0.008230997 -0.026370956 0.015613538 -0.029778937 -0.050529715 -0.035198968 -0.020614779 0.0005743431
0.050519116 0.03694608 -0.023321569 0.032256003 0.019188201 -0.03311508 0.027978841 0.0394292
-0.02300129 0.009851076 -0.064931124 0.024701264 0.059518877 0.048776943 0.004204301 -0.050477684
-0.0060628094 0.038798843 -0.06250648 -0.043705832 -0.020552581 -0.028503314 -0.041557617 0.060716733
-0.03923309 -0.032837737 -0.0066739586 -0.062790364 -0.03996592 -0.0074618845 0.025232626 -0.019746685
-0.009146402 0.007959158 -0.001977603 -0.0024022344 0.06490278 0.025309188 0.039159484 -0.04827596
0.04340442 0.021160001 -0.022968033 0.039641857 0.037115738 0.042544708 0.029199345 0.026935993
0.052359443 0.048347004 0.031376865 -0.06324379 0.03623417 0.025255885 -0.013540075 -0.047432017
-0.007941034 -0.0073155547 -0.048467483 -0.013199342 0.061204646 0.025070483 0.03844971 -0.058014553
0.0026572044 -0.055772852 0.055970237 0.06482709 0.014810154 0.03574975 -0.04856642 -0.057075646
-0.036854334 0.010924974 -0.057278723 0.030475805 -0.04788218 0.00367033 0.0019901532 -0.00087839406
0.018487005 0.00026439095 -0.01341245 -0.0514621 0.02066716 0.040186666 0.035420988 -0.014129974
-0.004678068 0.056241106 0.0010771339 0.018749157 0.015229643 0.017431883 0.024018113 -0.0020577307
-0.04217623 -0.022732578 0.036898695 -0.0381598 -0.051058017 -0.061728425 -0.052692134 -0.07843555
0.023839483 0.046971664 0.022008976 -0.0521205 -0.061428875 -0.0062985644 0.02104556 -0.043766264
-0.019687759 -0.062080357 -0.021560768 -0.010494339 0.039909374 0.015972145 0.028475275 0.050249446
0.05465715 0.034694154 0.00918012 0.0067991107 -0.055441674 0.031620376

3.weight f4 [50, 150]
00000000: 1426 64bd f79c 383d a0ed 743d f0ba babd
00000010: 0316 41bc 4d0f bc3d ccab 86bc e575 b13d
00000020: d79c f63d 8e19 c6bc ddf8 66bc 97d4 313d
00000030: 9337 a73d 7247 10be d499 bc3c ffe0 ed3c
00000040: 7351 a43d 71db d2bc feb7 7a3d e911 f6bc
00000050: 1ec6 12bc 3308 c53c 3b0b c0bd 069e 70be
00000060: 66e0 363d 5815 873d 9588 0ebc 2671 febc
00000070: d37b 443d 7ec7 723c 20f7 b1bc 532e 34bd
00000080: 2674 033d 90d0 963d 0464 b63b 0b7e a73d
00000090: a960 d1bc 15c5 333d 16cb 62bd 563f 3c3e
000000a0: 553e 463c 1773 d7bc e396 863c 9dea 16bd
000000b0: 25ad 223d f496 b83c eab2 b9bd 36db 843d
000000c0: 7032 723d a8a5 9f3d b333 73bd d0c6 a1bd
000000d0: 0a69 0bbd f6fc dd3b f5c2 913c 8cac 373c
000000e0: 9f64 7b3d dc29 0f3d 2063 b8bc d3ec 833e
000000f0: 7083 1fbe e3e3 80bd ddce 4ebd 12f5 4c3c
00000100: 696a b83c 440d b33b a033 873d aabc d33c
00000110: 31e8 b1bd fd10 d9bd ed4c 91bd 7ac9 47bc
00000120: 7cba debc ed5b 82bd 65fd 063d 42e0 eabd
00000130: 6192 8abd 0c53 a5bd 67f5 163d 1885 80ba
00000140: 4ece f83c 66b1 273e 2f11 653d c6e2 9fbc
00000150: 2d1a 56bd c571 8c3c 62ee 993d 3023 27bc
00000160: 6c85 283d 2190 9f3d 2d8f 5c3d 3309 0dbd
00000170: c937 35be 9296 973d 64e6 983c b07f acbd
00000180: 9895 56be b9a2 8abc 1180 123e af61 9eba
00000190: b8fc 99bc 5b9d 233e 04f3 823d 7504 093c
000001a0: ed39 3bbd a1c5 1cbe bf8a 783d 40ff 7ebd
000001b0: ac56 9e3d ee40 a5bd efab d1bc bfb0 d4bd
000001c0: 2492 4dbd c33b 7e3c 59ca f5bb 3215 5c3d
000001d0: 6842 5a3d 8963 0a3d 00b4 923d 9dab a13d
000001e0: 8a10 973b c07b f33d 3dbf 8dbd f8bb ca3c
000001f0: d921 fabd 16aa 5e3d 9c26 8dbd 2f04 333d
00000200: da12 943d 929f 19be 4cd6 60bd 0a3c febb
00000210: 5241 403d 93a7 043d f174 c6bd 1f18 833d
00000220: a6a4 73bd 05e1 013c 6da6 99bc 3af9 a53d
00000230: bf0d 4a3d f009 8cbd 7c8b 1e3b 6097 b13c
00000240: d838 45bc cf96 a3bc 9e2f 143e dd0f 243d
00000250: b719 76be 0eae 03be c35c 133d df9e 1e3d
00000260: 505d 3c3d 99fe 8c3d 2ae3 60bd 9f56 d8bb
00000270: 1f93 48bd 7fe9 62bd fba3 debc 78d9 9b3d
00000280: fde9 31bd 4ba5 503d a84a eabc baf3 e7bc
00000290: 1daf 293d 0d56 01bd 14f8 39bd c5a2 40bd
000002a0: 621b f33c 32f7 d13c ec8a a83c 52f2 c43c
000002b0: 3aac ee3c bdc8 6cbc bfaa 483d 7e86 203d
000002c0: bc9c 903d d634 363c 9964 993b 0490 693d
000002d0: 22d9 68bd 1e79 383d c3e5 c43c cb83 623d
000002e0: d00b 07bd 7fb4 823d 2376 2c3c 8003 acbb
000002f0: f1d6 4bbd 6797 913d c64f e7bc bf64 353d
00000300: 61c3 5b3d 833e 4cbd 4ac3 283c 98ec 993d
00000310: b224 a1bd d06b 0fba 7c7c 22bd b82b e5bc
00000320: 4b2e a73b b58c 303d 86cf 31bd b72c 8cbd
00000330: aa9c e4bc 64ac 92bb 845f 23bd 8ea2 18bd
00000340: 9596 973c 2c76 c8bc 230a 89bd d346 0a3d
00000350: a3c7 743c 950a 8abb b91d ec3c d629 3bbc
00000360: 8a79 f8bc 4dc3 f1bc a599 28bd eac7 4bbd
00000370: 8bc1 57bd e2e3 24bd cf74 423d 5340 b4bc
00000380: ea4a be3c 5361 b33b 4bde 3a3d ca99 a2bc
00000390: 7d63 59bd d596 a93d 036e a0bd ed15 f0bc
000003a0: 1d6f bbba d4a2 833d e7ef 8fbd efa0 03bd
000003b0: 5825 42bd 76b4 54bc 9d22 8fbd 5946 8dbd
000003c0: ac96 813c 0f8a 9a39 2c62 9d3d 17a5 91bc
000003d0: 50b0 163d a9fa d2bc 92cb e63b 31c0 3dbc
000003e0: e2be 9d3d 6cee 1ebc d776 bfbc 6fcd ef3c
000003f0: ad28 43bd 6079 44bd b8d7 043d bb5b 83bd
-0.055700377 0.04507157 0.05979693 -0.09117687 -0.011785033 0.09182606 -0.016439341 0.08665065
0.120416336 -0.024182107 -0.01409742 0.043415632 0.08164897 -0.14089754 0.02302257 0.02903795
0.08023348 -0.025739403 0.061210625 -0.030037837 -0.008958368 0.024051761 -0.09377142 -0.23497781
0.044647597 0.06595868 -0.008699556 -0.031059813 0.04796965 0.01481807 -0.021724284 -0.04398949
0.03209319 0.07363999 0.005566122 0.08178338 -0.025558786 0.043889124 -0.05536946 0.18383536
0.012099822 -0.026299996 0.01642937 -0.03684484 0.039715905 0.022532918 -0.09067328 0.06487124
0.059130132 0.07795268 -0.059375476 -0.078992486 -0.03403572 0.00677454 0.017793158 0.011210572
0.061375257 0.03495203 -0.022508204 0.2576662 -0.15577483 -0.06293466 -0.05049025 0.012509601
0.022511678 0.005464228 0.066016436 0.025846798 -0.08686865 -0.105989434 -0.070947506 -0.012194032
-0.027188532 -0.0636519 0.0329565 -0.11468555 -0.06766201 -0.080724806 0.036855128 -0.000980529
0.030371811 0.16376266 0.05592459 -0.019517314 -0.052271057 0.017144093 0.07516171 -0.01020126
0.041142866 0.07791162 0.05384748 -0.0344326 -0.17697062 0.07401766 0.018664546 -0.08422792
-0.20955503 -0.016923295 0.14306666 -0.0012083555 -0.018797264 0.15977995 0.06394008 0.008362879
-0.04570954 -0.15309764 0.060679194 -0.062255144 0.07731375 -0.08069025 -0.02559468 -0.10385274
-0.0501882 0.015517178 -0.0075009284 0.05373115 0.053285986 0.03378633 0.071632385 0.07894061
0.004610126 0.11888838 -0.069212414 0.024747834 -0.12213487 0.054361425 -0.0689213 0.04370516
0.07230158 -0.15002277 -0.05489187 -0.007758622 0.046937294 0.032386374 -0.096902736 0.06401085
-0.059483193 0.007927184 -0.018756116 0.08104177 0.049329516 -0.06837833 0.0024192026 0.021678627
-0.012037478 -0.019969372 0.1447129 0.04005419 -0.24033247 -0.12859365 0.035977136 0.03872573
0.045987427 0.06884498 -0.05490414 -0.006602123 -0.04896843 -0.05539846 -0.027177801 0.07609838
-0.04343604 0.050938886 -0.028600052 -0.02831446 0.041426767 -0.031576205 -0.0454026 -0.04703023
0.029676143 0.025630567 0.020574056 0.024041329 0.029134858 -0.014452157 0.04899096 0.03919076
0.07061145 0.0111209955 0.0046811816 0.05702211 -0.0568477 0.04503738 0.02403534 0.05530147
-0.03297025 0.06382083 0.010526213 -0.0052494407 -0.04976553 0.07108956 -0.028236281 0.044285532
0.053653125 -0.049864303 0.010300467 0.0751583 -0.07868327 -0.00054710824 -0.0396695 -0.027974948
0.005101954 0.04310294 -0.0434108 -0.06844466 -0.027906734 -0.004476117 -0.039886013 -0.0372644
0.01850442 -0.024470411 -0.066913866 0.03375895 0.014940175 -0.0042126873 0.028822767 -0.011423549
-0.030331392 -0.029512072 -0.04116215 -0.0497512 -0.05267481 -0.04025639 0.04747468 -0.022003328
0.023229081 0.0054742484 0.04562215 -0.019848723 -0.053073395 0.08280722 -0.07833483 -0.02930733
-0.0014300082 0.064275414 -0.070281796 -0.0321359 -0.047398895 -0.012982478 -0.06989024 -0.068981834
0.015818916 0.0002947603 0.076847404 -0.017778916 0.03678924 -0.02575429 0.0070433104 -0.0115814665
0.07702424 -0.009700399 -0.023372097 0.029272763 -0.047646213 -0.047967315 0.032432288 -0.064139806

3.bias f4 [50]
00000000: 01e0 dc3b f692 9abd e285 233d 5f1c 7abd
00000010: 1838 fb3c f59d ed3c a212 733d df55 a4bd
00000020: 81bc afbb 389a 4e3b d1b9 513d 26d4 7bbd
00000030: dd8d 02bc a912 29bc 4cf2 25bd 41f2 563d
00000040: 23c2 1b3d f900 a13d 7103 0abc a124 ea3c
00000050: eb2a 67bd b04f 20bd 6f8c 0bbd a765 f8bc
00000060: 60db 273d ceec 5abd bee3 08bd 4b0c 6abd
00000070: 1c57 503d 6413 9d3d d8eb a73c 84d9 06bd
00000080: 1427 3dbd fb7e 3f3d 8990 263c a154 18bb
00000090: d0fb 67bc 423c c13c 3a0e 5e3d 0052 983c
000000a0: cbe3 583c d3d7 24bd fcaf 8d3d b466 543c
000000b0: d617 933d f9d7 44bc ce6b 6a3c 5613 3ebc
000000c0: d670 4c3d 7eec 6dbd
0.0067405705 -0.07547562 0.039922602 -0.061062213 0.030666396 0.029005984 0.05934394 -0.08024191
-0.0053630476 0.0031525027 0.0512026 -0.061481617 -0.007968393 -0.01031939 -0.040514275 0.052477125
0.03802694 0.07861514 -0.008423672 0.02858192 -0.056437414 -0.039138496 -0.034069475 -0.03032191
0.040980697 -0.05344849 -0.033420317 -0.05714063 0.050864324 0.07669714 0.020498201 -0.032922283
-0.046179846 0.046751957 0.010166296 -0.0023243802 -0.014159158 0.023588303 0.054212786 0.018593788
0.013237904 -0.04024489 0.06918332 0.012963939 0.07182281 -0.0120143825 0.014307929 -0.01160129
0.049912296 -0.058086865

5.weight f4 [10, 50]
00000000: 7d00 4bbd 9a2a 863c d7cb 7a3d b5ce d23d
00000010: 5c27 863d 38d0 f2bd ec79 483d 7857 0d3e
00000020: 137e e8bc cff5 febd 76a0 36be 4d7e 893c
00000030: 840c 163e a4a6 23bd d19a 183e 55b3 5ebd
00000040: 161d ff3c 2811 903d 711f b7bd c273 303d
00000050: 129e 2dbc b82f 65bd d892 7ebc 0900 e5bd
00000060: 43d0 00bd fcf3 033c 77ae 483e d637 b9bc
00000070: 0252 bcbb 46eb fabd f58c b4bc 5617 0bbe
00000080: 0dcf 783d 96b7 7fbe 696b cd39 90a1 40bf
00000090: ade0 06be 41c2 5b3d a506 813d 24b1 073b
000000a0: 9230 27be 1aeb d2bd 3abd a9bd cf05 bbbd
000000b0: 0d58 753d f67e 143c 3c88 a2bd b326 dc3c
000000c0: f902 703d 71b3 f73d cb6e 943c ca88 173d
000000d0: a044 6b3d c492 f23c 7a7f d1bc c484 c43d
000000e0: f576 023e eace 0ebc a779 00bd 2038 98bb
000000f0: 5289 4e3d 62b1 54bd 94c5 853d 161c 33be
00000100: 309a 283e b19f 7e3d e370 0e3d e80f e3bd
00000110: 3db4 4ebd 1853 d2bd b6dd 4cbd 6f77 9abd
00000120: 215c 803c 7a38 89bd b449 243d a086 e9bd
00000130: c8b7 103e b6d7 3b3c 89e7 39be c547 c3bd
00000140: e70f 8abc d227 a03d 0e7d 25bc f47f 94be
00000150: dc26 8bbd a497 20bf 80c5 aa3c c135 6dbd
00000160: e7fe 043d b464 253d d35b 8cbd 8955 d1bd
00000170: 87d6 8bbb 1aa8 50bd 958e 17bd 05c4 a23d
00000180: 43e1 5fbe 5a62 00be a791 3cbc 2d98 e03d
00000190: 68f4 17bc e534 2ebc 27eb 623d 441e b03d
000001a0: 7e19 a9bd e7b0 03be c053 c33d 04d5 863d
000001b0: f301 2fbe cb18 7cbd 5154 b1bc e2ae 653d
000001c0: 6e66 2d3c d9dd 443d 1f46 07be 6e7f c2bb
000001d0: ae4b 2dbe 4762 84bd 07d9 bc3d 4be4 c5bd
000001e0: 721b 2cbc c4d1 c03d 8528 133e 5034 cc3d
000001f0: a402 adbd e8b5 123e bec8 61bd bb6e 5c3d
00000200: 24fe 9a3d 2d41 f63d efc8 e2bd 6d46 5bbd
00000210: 3aaf 0cbe 74ac 333e 7bd1 a7bd b6c0 0f3f
00000220: 8e8d f9bd 70d2 403c f447 ea3d 8058 02bd
00000230: 5478 88bd aaf4 353d 748d 523d c76c 903d
00000240: a867 d1bd 3e50 f53c 93d6 ccbc cde4 693d
00000250: 8d57 20bd 5f01 dd3d ce69 163e 3730 8c3d
00000260: 2d2e c43d a92d 5cbc b713 c9bd 7bb8 81bd
00000270: 133d 13be 8c56 e2bd 2c1a 223d 6f1a 583e
00000280: 6252 b93d 0d13 70bd 5324 3b3d 2a7c 013e
00000290: d87a 52bc 4109 dabd 8081 17be 612a bc3d
000002a0: 0a58 c0bd 617b ddbd 8a43 79bd 912e 90bd
000002b0: efcd e4be 3d06 4bbd 7c5a dbbd d730 fdbd
000002c0: 365b b23c 5c01 81be 1033 c2bd 0c04 583b
000002d0: 33e8 09be 46a6 44be 76e7 da3d cc5c 253e
000002e0: 207a 8cbc 283e 20bd 3c45 d2bd 704a b1be
000002f0: a837 dfbd e90f fe3d 5468 c2bc 03b0 293d
00000300: b4e2 0fbe c8e9 9b3d 8b03 0bbe 6cb2 da3d
00000310: 8f63 a13e 2ac5 55bc 4226 1fbe 450a 093e
00000320: 1f0c 273e 8514 00be a4c6 983d eac1 bbbd
00000330: 244b b7bd d332 833d 18aa 45bd b48c 07be
00000340: f8b1 8fbd d53b 05bd f7c9 6a3e 3b69 033e
00000350: f21b 12be 6ec9 133e e212 34be 891d e53d
00000360: 9183 fcbd 0dcb c33d fcab 23be 1511 893d
00000370: ca6c 5dbc c103 35bc a1b5 1b3d 8d36 d03c
00000380: 0caa b83c 6ebc a0bd fcc4 50be 601e af3d
00000390: 9af5 173e d4aa ab3d 422a 363d 791c 553d
000003a0: 0d17 e8bd 426c bb3e 7ea0 5a3c 8c8d 303f
000003b0: 1e23 82bd 6341 85bd 3a39 26bc 67e3 45bd
000003c0: b9b3 ecbd a70f 4bbd 055a a7bd 91b3 1f3e
000003d0: 2f33 6f3c f2ea 23be e598 ae3d 014a 063e
000003e0: 8822 29be 7489 6dbd c411 78bd 6ed6 a43d
000003f0: 86be bc3b 2b4d b33c d2c6 3ebe c594 0fbe
-0.049561013 0.016377736 0.061229553 0.102933325 0.06550476 -0.11856121 0.0489444 0.13802898
-0.02838043 -0.12449228 -0.17834648 0.016783858 0.14653212 -0.039953843 0.14902808 -0.054370243
0.031141799 0.07034522 -0.08941544 0.043079145 -0.010596769 -0.05595371 -0.01553794 -0.11181647
-0.031448614 0.008053776 0.19597803 -0.022609632 -0.005747081 -0.12251906 -0.02203987 -0.1358312
0.060744334 -0.24972376 0.00039180674 -0.75246525 -0.13171645 0.05365205 0.063000955 0.002070495
-0.16327122 -0.10298748 -0.08288045 -0.09131967 0.059898425 0.009063473 -0.07936141 0.026873922
0.058596585 0.120947726 0.018119236 0.036995687 0.057438493 0.029610999 -0.02557348 0.095956355
0.12740691 -0.008716324 -0.031366017 -0.0046453625 0.050423928 -0.051926978 0.06531826 -0.17491183
0.16465068 0.062164012 0.034775626 -0.11087018 -0.050464857 -0.10269755 -0.050016128 -0.075423114
0.01566893 -0.06700225 0.04010935 -0.11402631 0.14132607 0.011465004 -0.1815473 -0.09535173
-0.016853286 0.07820095 -0.010100616 -0.2900387 -0.06794521 -0.62731385 0.020846128 -0.05791259
0.032469656 0.04037924 -0.068534516 -0.10221393 -0.004267517 -0.050941564 -0.03700121 0.07947544
-0.21863274 -0.12537518 -0.011509336 0.10966525 -0.00927458 -0.010632728 0.05540004 0.08599523
-0.082568154 -0.12860452 0.095374584 0.06583598 -0.17090587 -0.061547082 -0.02164665 0.056074984
0.010583503 0.048063133 -0.13210343 -0.005935601 -0.16923401 -0.064640574 0.09221082 -0.09662684
-0.01050459 0.094150096 0.14370926 0.09970915 -0.08447769 0.14327204 -0.055123083 0.05381654
0.07568005 0.1202415 -0.11073481 -0.05353396 -0.13738719 0.17546254 -0.08194252 0.5615343
-0.121852025 0.011768922 0.11439505 -0.03182268 -0.06663576 0.044422783 0.05140443 0.07051998
-0.10224849 0.029945489 -0.02500466 0.057102967 -0.039145995 0.10791277 0.14688799 0.06845134
0.0957912 -0.013438621 -0.098182134 -0.06334015 -0.14378767 -0.11051664 0.03957574 0.21103834
0.090489164 -0.05861192 0.04568894 0.12645021 -0.012846671 -0.10646296 -0.14795494 0.09187771
-0.09391792 -0.10814548 -0.060855426 -0.07040132 -0.44688365 -0.049566496 -0.10710618 -0.12362831
0.021772008 -0.2519635 -0.09482396 0.0032961397 -0.13467483 -0.19204053 0.10688679 0.1614868
-0.017148077 -0.039121777 -0.10267112 -0.34627104 -0.108992875 0.12405378 -0.023731388 0.041427623
-0.14051324 0.076129496 -0.1357557 0.106785625 0.3152127 -0.013047496 -0.15541938 0.13382824
0.16313218 -0.12507828 0.07459763 -0.091678455 -0.08949879 0.06406178 -0.048257917 -0.13237268
-0.07016367 -0.032527763 0.22928606 0.12833111 -0.14268473 0.14432308 -0.17585328 0.11187274
-0.12329782 0.09560213 -0.15983576 0.06692711 -0.013514707 -0.011048258 0.03801501 0.025416637
0.022542022 -0.0784844 -0.20387644 0.085507154 0.14839783 0.08382192 0.044473894 0.052029107
-0.113325216 0.36606032 0.013343928 0.68965983 -0.06354354 -0.06506612 -0.01014548 -0.04831257
-0.11557717 -0.049575474 -0.08171467 0.15595843 0.014599605 -0.16007593 0.08525256 0.13114168
-0.16517079 -0.057992414 -0.060563818 0.08048712 0.005760017 0.021887382 -0.18630531 -0.14021595

5.bias f4 [10]
00000000: 7ce9 90bd 5e01 05be dfb9 fa3d 0b82 113e
00000010: 72ab ee3d b0dd 17be 8020 d9bd 04fd 90bd
00000020: 22e5 e03d 4d71 5a3d
-0.070757836 -0.12988803 0.12242483 0.14209764 0.11653794 -0.14830661 -0.10601902 -0.07079509
0.109812036 0.05333071

7.weight f4 [1, 10]
00000000: 89b8 afbd 5012 5abe 62eb 883d bb98 cb3e
00000010: 2f9e aa3e e37c f2bd 82e7 5cbe 49a5 c63e
00000020: d8e8 a9bc 3e2d 14be
-0.08580119 -0.21296048 0.06685521 0.39764962 0.3332381 -0.118402265 -0.21572688 0.38797978
-0.020740911 -0.14470384
